bittle_controller/output/bittle_frozen_axis1.tflite (tflite, 793228 bytes, 9 tensors)

model/pi_fc1/b f4 [256]
00000000: dcc2 b53a ccc4 843b 8683 143b 98a7 943a
00000010: 458c c33b d45d a83b 7d78 c23a 290a 9b39
00000020: 0478 9d3b 65ab 833a 08f7 953b 0ef6 493b
00000030: 26db 453b 0d7f 073c eb2d d63a 07f8 933a
00000040: bb21 a33a 2b72 523b c04a b9bb f8a4 9e3b
00000050: edd4 2339 fa10 13bc aa80 3f3b 5b1e 8f3b
00000060: 4b07 1cbb f016 113b 8333 0dbb 69b1 8bba
00000070: f733 acbb 8562 653b 61b8 caba 3083 683a
00000080: e32c 9a3b 5c8a 263a a0f3 3cb8 316f 98ba
00000090: da48 1ebb 43d9 253b 3568 3e3b ceda 9439
000000a0: 5865 893b 6698 0cbb ee0b 1f3a 0074 333b
000000b0: c50b 423b 51d0 9cba 1dd6 a53a b4bd d6b9
000000c0: d81e 4b39 07ea 53b9 41df 063a e1b6 ae3a
000000d0: fcd2 963b 8970 243b caca 003b 6ade 563b
000000e0: d65b 4e3b d815 823a 1ec4 bfb9 5697 fb3a
000000f0: 038f 94ba deab 2b3a 08f3 023a 43ef 023b
00000100: e5fe eaba 6c4a 0e3b 84e8 473b d9e3 a33a
00000110: e229 04bb aea5 ba3a a2ff 7c3b 04b3 cf3a
00000120: b329 0dbb aa07 b739 988f 613b 77d1 9e3a
00000130: f3ac d93b 0000 0000 1a12 1d3b 4a94 11bb
00000140: 5b88 d83a 8e09 3f39 dffc 163b 040f 813b
00000150: 9c64 103b 996b 33ba a312 3fbb 573f 693a
00000160: 12da 99bb 333d b239 fb50 473b 1f61 263a
00000170: 3de3 e7ba d377 af39 96bc 093b ff37 073b
00000180: cad3 d53a 32ef 893a 5198 04bc b62a be3a
00000190: 92a1 f839 1669 c3ba ecd5 843b add1 583b
000001a0: a0f0 463a 0e76 6d3a 0f95 563b c4c5 95bb
000001b0: 019c 183b 09dc 4137 3347 1239 b672 f43a
000001c0: fc80 293b dc93 393b aebd bdba f6bc 9c3b
000001d0: 50bd 97ba 9bf5 863a 1cb1 20b9 a670 ccba
000001e0: 708c 4dbb 8b62 3ab9 90c5 c03b 96b1 0b3b
000001f0: 9e49 203b a1cf 08bb f0fb 0e39 1bae 4a3a
00000200: 2db2 aaba 69f3 853b ed63 e6ba affa 4f3b
00000210: 2ac5 8aba 109b ca3b 8f7a ab3a 85db e639
00000220: 67e6 5c3a 539f 5e3b e892 523b a2f5 b8b9
00000230: b561 f13a 9268 9db9 7254 bbba 16a8 1b3a
00000240: 2b9b 10bb 1933 e3ba 6752 a5bb a81c fc3a
00000250: 325b 1c3b 46a7 023b a62b e239 760c 82bb
00000260: 0000 0000 ed8b 0b3a b6f5 d43a 18f4 673b
00000270: 998c 3a39 c869 433b 9df1 143a 88b5 683b
00000280: e1d6 3d39 8302 783b 7199 003b 0745 083a
00000290: d5fe 6d3a 2fd7 72ba 0000 0000 0cf3 273b
000002a0: a733 18bb 58d8 feba 2328 37bb 4403 75ba
000002b0: e45c 233a 4293 ae3b 4da6 9fbb dde9 4439
000002c0: f5be fd39 212e 093b 5438 893a da1c 44b9
000002d0: 16a8 843a 337d 613b 1f95 013b 33b7 d73a
000002e0: d112 f13a 3853 5c3b 0000 0000 308b 173a
000002f0: 9fa6 323b 4201 913a d5b5 96bb c910 873b
00000300: 6b7b 103a 7cd8 783b 4028 813b 0000 0000
00000310: 863f 0d3b dc62 cb3a 66c8 8a3a f98b b3ba
00000320: 42ed 1a3b 9702 15bb ca34 32b9 5c21 4abb
00000330: c652 dc3a 8cb4 8f3b 0844 533b cea0 7a3b
00000340: 41d1 3cbb 5076 d73b edb5 43bb 1db8 ec3a
00000350: 6e5a 153c e47c 9e3b b331 503b 3680 8939
00000360: ce9c 573b 5fc8 24bb 869a fa3a cdc8 293b
00000370: b51d 4d3b 4c0e a43b 1df0 873a 0000 0000
00000380: f8d4 c3bb df36 283b c6e8 4c3b 3fd6 d93a
00000390: 7e82 0a3b af7e 48bb 2987 6c3b 93a0 c6ba
000003a0: 251f 2c3b f9dd 163c 4ed5 cd39 d77f ca3b
000003b0: 5b8a 24bb fcce 343b dc20 00bb 47e9 c53a
000003c0: 02bc 3aba 1bd6 e6bb ba1c b03a 4907 bcba
000003d0: ae13 813b 7295 1d3b d04e 0939 ebec 743b
000003e0: 8312 21bb 6c99 ff3b ea72 5c37 2115 8c3b
000003f0: 6939 493b 670a 0e3b 00fb adba 747e 2e3b
0.0013867277 0.0040517803 0.0022661402 0.0011341451 0.005967649 0.0051381383 0.0014836934 0.00029571474
0.0048055667 0.0010045586 0.0045765676 0.0030816826 0.0030190437 0.008270037 0.0016340589 0.0011289128
0.0012445966 0.0032111506 -0.005654663 0.004841443 0.00015624212 -0.0089762155 0.0029220977 0.0043676323
-0.0023808058 0.0022138916 -0.0021545596 -0.0010657731 -0.005255218 0.003500135 -0.0015466326 0.0008869646
0.004705058 0.00063530146 -4.5049586e-05 -0.0011629817 -0.002415231 0.00253065 0.0029053811 0.00028391782
0.0041929893 -0.0021453141 0.00060671463 0.0027382374 0.0029609066 -0.0011963939 0.0012652312 -0.000409586
0.00019371079 -0.0002020971 0.0005144962 0.0013329649 0.004602788 0.002509149 0.0019652122 0.0032786378
0.0031487844 0.0009924723 -0.00036576478 0.0019194882 -0.0011334125 0.00065487425 0.0004995321 0.0019979037
-0.0017928748 0.002171184 0.003050358 0.0012503817 -0.0020166566 0.001424005 0.0038604517 0.0015846197
-0.0021539747 0.0003491019 0.0034417864 0.0012116869 0.0066429316 0.0 0.0023967088 -0.0022213631
0.0016520129 0.00018218739 0.0023038907 0.0039385576 0.0022032624 -0.00068443414 -0.0029155395 0.0008897683
-0.0046951855 0.00033996403 0.0030413258 0.00063468696 -0.0017691624 0.00033467877 0.0021016947 0.0020632742
0.0016313728 0.0010523556 -0.008092956 0.0014508578 0.00047422625 -0.0014908637 0.004053822 0.003308396
0.00075889565 0.0009058424 0.0032742654 -0.0045706946 0.0023286345 1.1554927e-05 0.00013950169 0.0018649909
0.0025864234 0.002831689 -0.0014476085 0.004783268 -0.0011576805 0.0010296585 -0.00015324767 -0.0015597537
-0.0031364225 -0.00017775052 0.0058829263 0.0021315566 0.0024457942 -0.002087571 0.0001363603 0.0007731632
-0.0013023071 0.0040878546 -0.0017577388 0.0031735112 -0.0010587324 0.0061830357 0.001308279 0.00044032573
0.00084266666 0.0033969476 0.003213102 -0.00035278226 0.001841596 -0.00030023284 -0.0014292134 0.00059378275
-0.0022065144 -0.0017333954 -0.0050452235 0.0019234614 0.0023858068 0.0019936129 0.000431386 -0.0039687706
0.0 0.000532328 0.0016247544 0.0035393294 0.00017790719 0.002981769 0.0005681755 0.0035508592
0.00018104493 0.0037843294 0.0019622708 0.0005198274 0.00090788055 -0.0009263632 0.0 0.0025627045
-0.0023224147 -0.0019443138 -0.0027947507 -0.0009346495 0.00062317983 0.005327613 -0.0048721195 0.00018779137
0.00048398194 0.0020932036 0.0010469058 -0.00018702765 0.0010120894 0.00344069 0.001977272 0.0016457796
0.0018392449 0.0033618938 0.0 0.00057809334 0.0027259958 0.0011062997 -0.004599313 0.004121874
0.0005511555 0.0037970832 0.0039415658 0.0 0.0021552755 0.0015517133 0.0010588288 -0.0013698331
0.0023639952 -0.002273714 -0.00016995068 -0.0030842638 0.0016809336 0.0043855365 0.0032236595 0.003824282
-0.0028811248 0.0065753832 -0.0029863075 0.0018060241 0.009115798 0.0048366655 0.0031767904 0.000262262
0.003289986 -0.0025143845 0.0019119538 0.002590704 0.0031298224 0.005006587 0.0010371242 0.0
-0.0059763156 0.0025667471 0.0031266673 0.0016619636 0.0021134908 -0.0030593087 0.0036091304 -0.0015154056
0.002626368 0.009208196 0.0003925957 0.0061797905 -0.002510688 0.0027589193 -0.0019550836 0.0015099429
-0.0007123352 -0.0070445663 0.0013436296 -0.0014345433 0.0039391136 0.0024045375 0.00013094698 0.003737266
-0.0024577684 0.0078002717 1.3139777e-05 0.0042749797 0.0030704385 0.002167368 -0.0013273656 0.0026625665

model/pi_fc0/b f4 [512]
00000000: 9836 feb9 578d 8539 e06b 0a3b 96e1 c53b
00000010: 602d a93a 4ae3 403b f5ca 1c3c b215 afb9
00000020: 931d dd3b 8e45 063c 50a5 c5bb 0ed0 e13b
00000030: 4bb9 513a 0f73 973a 46f1 343b b51a d0ba
00000040: c801 83bb 836b 7c3b e3be e93b 555f 473a
00000050: 8b13 78bb 5655 9abb cba3 7b3b b0b9 b639
00000060: 9f66 49bb bf18 033c 6d52 023c 9959 babb
00000070: 114c 663b 0782 f7ba 612f 3b3b 9dcf 1a3c
00000080: e3c7 673b 66e5 8eb9 a376 aa3b 5e72 bcbb
00000090: 6049 11bb adbb 1ebb d701 59bb 624c aaba
000000a0: 048e 0c39 1b26 6eba c8c4 d93b a2dc 1dbb
000000b0: bc2e b5ba edc5 d73b 1eb1 7339 3bdc f43a
000000c0: c30e e73b f18c be3b e921 f1ba 3611 f23b
000000d0: c425 593a bce3 faba 1d2e bc3b e897 c43b
000000e0: 20f6 c1b9 946f 8f3b 5656 b03a 11f1 cabb
000000f0: 9bce 18ba 6149 413a e5ca 02bc 9f1e c63a
00000100: e9e4 b43b a11a a23a ee52 1e3a 1d75 993b
00000110: 98f2 e7ba a909 cf3b c6c9 79ba f5bf ba3a
00000120: 3e10 a6ba 899e 343c 9128 bc38 3b7d 0d3c
00000130: 4482 223b e886 993a 39e6 3dbb 28fc f4ba
00000140: eabe a5bb c02f de3a 91c0 cbbb d9b8 2fb9
00000150: 8a5a 0e3c d9a0 cf3a b142 51ba 9a5a 1dbb
00000160: f672 25bb d81f ba3a 94b9 2d3c 7882 2d3c
00000170: d16d 3e3c 5e67 10bb e1d2 e93b c9f9 5c3b
00000180: 5595 9b3a d305 50bb 4e62 75bb d73d 163a
00000190: 639d 973b 4204 9c3b 976e 3b3b 1407 29ba
000001a0: d0db 06bc 4597 d2b8 40d2 bbba 46c2 edba
000001b0: b333 b1b9 fc71 09bb 6b79 043b 0404 dc3b
000001c0: 60ac 82bb cc2a bb3b 9449 2b3a 83c6 d53b
000001d0: 163e 003c 38bb df3b 425d 4c3b d029 3fba
000001e0: 897e 8c3b 9f39 103b 1dde f1ba f4e0 1d3b
000001f0: a821 a0b9 9ef0 4e3b c0b4 c83a 116e d33b
00000200: 8c00 8e3b 9b32 cbba 34e5 253b 6100 adba
00000210: 42bf 193b 90c6 cebb 8806 a5ba 3bea 243c
00000220: 6830 3bbb 4a08 6c3a d07a cb39 6602 05bb
00000230: 46f8 3c3c 45e3 d43b ffc8 a53b 673e 293c
00000240: 793b 913b 470d d93b 13af 333b d591 343b
00000250: 3ae1 3bbb 1985 513b 19ac 3f3b a08b 3dbb
00000260: 07ab c63b e6bc 12bb d317 753b 3496 1aba
00000270: eb2c 1f3a 6d34 663b d383 a23c a529 70ba
00000280: 23ee ae3b 0080 ac3b d906 fa3b 1121 1e39
00000290: 5e8b 2db9 a770 283b e631 253c a722 073b
000002a0: cb9f 5dbb 630f 743a d6b2 2e3c 8d6a 1239
000002b0: 9f09 aebb 46bd 083b ce78 88ba afa7 bc3a
000002c0: 22e0 d5b9 a5b2 f4bb a91b 963b 7402 f8ba
000002d0: 0c53 893b 3712 8cba 9ad6 0cb9 6b88 23bb
000002e0: 4c64 703b 9c2b bc3a 14f6 12bb 56d2 413a
000002f0: a4f1 4abb d0a2 bc3b 5621 bdb9 72ef 3f3b
00000300: 6308 7abb 333d c23a ca0b 173b b55f 2abb
00000310: 1d14 133a 5af6 2bba 1464 a4bb e58a 8f3b
00000320: b641 41bb 14d8 d038 0e7f 8d3b 1ce9 643a
00000330: e9f4 9dba 34f9 b23b af82 5f3b d122 2cba
00000340: 8b37 55b9 a48e e73a 580b 9d3b 7987 923b
00000350: e1ba c0bb c62b 043c 5fb3 ce3b 2f89 413b
00000360: 02ee f2ba aae2 733b c0bd 0f3c 7510 6e3b
00000370: 98b7 293b b59f f63b 4b78 d63b 477e e0ba
00000380: 6fc7 a7b9 d493 983b a2a5 c53b 0f81 56ba
00000390: 477e 58bb 1af1 fe3b 8a10 1ebb b231 b83b
000003a0: f549 853a 9bb8 1a3b 3964 7fba f5c9 953a
000003b0: 2b17 e6b9 1989 3ebc 14c5 7b3b b0d6 803b
000003c0: b9de c9b9 a3c9 9b3a 2301 06bb 3723 27bb
000003d0: 87ab 0eb9 c113 993b e1ab a33b 6bc6 dc3b
000003e0: 0ae3 9b3b f12b cc3b b31d dc3a 0000 0000
000003f0: 072a dc3b 7540 49ba da0b 14b8 ccf0 dd3b
-0.0004848733 0.00025473043 0.0021121427 0.006038855 0.00129072 0.002943235 0.009569873 -0.00033394765
0.0067479103 0.008195294 -0.0060316697 0.006891257 0.0008000328 0.0011554676 0.002760963 -0.00158771
-0.003998015 0.003851623 0.007133351 0.0007605453 -0.0037853445 -0.00470988 0.0038397189 0.00034852093
-0.0030731333 0.008001505 0.007954222 -0.0056869504 0.0035140554 -0.0018883356 0.0028562176 0.009448913
0.0035366945 -0.00027255266 0.005202131 -0.0057509383 -0.002216898 -0.002422075 -0.003311267 -0.0012992735
0.00013404345 -0.00090846576 0.0066457726 -0.0024087806 -0.0013823132 0.006584874 0.00023240267 0.0018681356
0.0070513203 0.0058151414 -0.0018396947 0.0073873056 0.00082835206 -0.0019141356 0.005742802 0.005999554
-0.00036995206 0.004377315 0.0013453464 -0.006193288 -0.00058291265 0.00073733 -0.007982944 0.0015115327
0.0055204523 0.0012367555 0.0006039579 0.0046831504 -0.00176962 0.0063182903 -0.0009528663 0.0014247881
-0.0012669635 0.011024126 8.972095e-05 0.008635814 0.0024796883 0.0011713179 -0.0028976335 -0.0018690871
-0.005058159 0.0016951486 -0.006218024 -0.00016758162 0.008688578 0.0015840783 -0.0007982655 -0.0024010302
-0.0025245524 0.0014200164 0.010603327 0.010590188 0.011622862 -0.0022034268 0.0071357344 0.003371822
0.0011870066 -0.0031741753 -0.0037442627 0.0005731261 0.0046269163 0.0047612498 0.0028599852 -0.0006447893
-0.008231118 -0.000100417565 -0.0014329627 -0.0018139563 -0.0003379859 -0.002097248 0.0020213972 0.006714346
-0.003987834 0.005711889 0.00065340963 0.0065239086 0.007827302 0.006827738 0.0031183516 -0.00072923023
0.004287545 0.0022007 -0.0018453036 0.0024090381 -0.00030542654 0.0031576524 0.0015312657 0.00645233
0.0043335613 -0.0015502753 0.0025313618 -0.0013198965 0.0023459946 -0.0063102916 -0.0012590447 0.0100656105
-0.0028562788 0.0009003921 0.0003881068 -0.002029562 0.011533802 0.006496819 0.005059361 0.010329819
0.0044321385 0.0066238972 0.0027417585 0.0027552743 -0.002866818 0.0031970202 0.0029246865 -0.0028922334
0.0060628685 -0.0022390424 0.0037398234 -0.0005897016 0.0006072062 0.0035126463 0.01983825 -0.0009161479
0.0053384467 0.005264282 0.007630211 0.00015080372 -0.00016550484 0.0025701912 0.0100826975 0.002062002
-0.0033817168 0.0009310154 0.010662755 0.00013963338 -0.0053112055 0.002086477 -0.0010411979 0.0014393235
-0.00040793518 -0.007467585 0.004580934 -0.001892163 0.004190808 -0.0010686581 -0.00013431386 -0.0024953138
0.0036680875 0.0014356258 -0.0022424506 0.0007393708 -0.0030966783 0.0057567134 -0.00036073726 0.0029287008
-0.0038151972 0.0014819264 0.0023047798 -0.0025996987 0.0005610602 -0.00065598416 -0.005016813 0.004380571
-0.002948863 9.9584606e-05 0.0043181246 0.0008732246 -0.0012051138 0.0054618362 0.0034104993 -0.00065664673
-0.00020333954 0.0017666412 0.004792612 0.004471716 -0.0058816527 0.008067077 0.006308004 0.002953123
-0.0018534067 0.003721396 0.008773267 0.0036325727 0.0025896784 0.007526363 0.0065451018 -0.0017127477
-0.00032001312 0.0046562944 0.006031708 -0.00081826834 -0.0033034252 0.0077802064 -0.0024118745 0.0056211585
0.0010169136 0.0023608569 -0.00097424124 0.0011427986 -0.0004388628 -0.011629366 0.0038417028 0.0039318427
-0.0003850365 0.0011885654 -0.0020447455 -0.0025503167 -0.00013606074 0.0046715443 0.004994855 0.0067375205
0.00475729 0.006230824 0.0016793519 0.0 0.0067188772 -0.00076771464 -3.5296987e-05 0.00677309

model/pi/logstd f4 [1, 8]
00000000: 9215 05c0 9215 05c0 9215 05c0 9215 05c0
00000010: 9215 05c0 9215 05c0 9215 05c0 9215 05c0
-2.0794415 -2.0794415 -2.0794415 -2.0794415 -2.0794415 -2.0794415 -2.0794415 -2.0794415

model/pi/b f4 [8]
00000000: 8626 01ba 8a00 6b3a 7ae2 13bb dcc7 093b
00000010: 513a ae39 924d 9a3a 82eb 4bba 9f06 8d3b
-0.00049267 0.0008964619 -0.002256541 0.0021023666 0.00033231315 0.0011772385 -0.0007778929 0.004303768

model/pi/MatMul f4 [8, 256]
00000000: 1093 443d 3a7e b7bd e5c4 5bbb 72e8 9dbd
00000010: 5ca3 dabc 4109 d73c 2c65 a1bd e791 16bd
00000020: a427 efbb be90 9e3d 1b55 8f3c 42a0 283d
00000030: e228 17bb 5c03 cfbd e0de bdbd 1015 acbd
00000040: 4e92 19bd 64fe a43c 7878 64bc a012 e43d
00000050: abba 01bc b77f 29bd 4a29 50bd d108 a63d
00000060: ded6 8bbb 5cb6 0a3e 15de fcbb 1469 79ba
00000070: b93e 79bd f58e 02bd 71ed 80bd 6c32 6c3b
00000080: e5e7 53bd 8e45 69bc 1e6a 79bd f0de ef3c
00000090: 7791 0e3e ac1d 2f3d e8db c93a 7413 33bd
000000a0: e114 e03d 30ed ffbd 39fe 923d 4b47 e1bd
000000b0: b7a7 223c d09e 11bd e1fb 9abc 83f0 5cbd
000000c0: 04d5 9eba a7fc c13d b4ea 99bc 5474 5abd
000000d0: 21fa d13c 5d10 20be 0fb2 0fbd 86a8 8d3d
000000e0: f31f b63d 6426 353b 7ca0 743b 8bc3 45bd
000000f0: e179 823d e86f 353d e5aa d43d 50e5 24bc
00000100: d1ef d23d 5002 86bd 32ed 6a3d 6c6e 853d
00000110: ff76 3e3d f469 abbd 3ea6 373b ef4e c83d
00000120: 3f2f 003e c940 65bd 842c a13c 1cdc 12bd
00000130: 6fb3 20be ea49 f9bd b6e7 01be b73c 40bc
00000140: 2f09 16bd b8ec 3fbd 7f52 c53c 9816 943c
00000150: c5f8 be3c 2472 703c cfe0 f1bd 2b77 d03d
00000160: 6435 bcbc 14c5 823d 342b e33b 8f30 8f3d
00000170: 6c55 333d 597a 303d 61d5 fbbb bfcf 793c
00000180: 9268 403d ad5d f03c abd2 db3d 810c d3bd
00000190: c499 bd3d 55a0 31bd 0766 04be ba9d abbd
000001a0: 1129 843b 8bc9 63bd e695 193e 3d6c 9f3d
000001b0: 4654 ccbd a1f8 49bd 905f 62bd 4555 6b3d
000001c0: f7ae 3dbc 0bf9 9dbc 56fd 353d f5a7 cc3c
000001d0: 1198 b5bd 7a5b 353b eab1 7b3d 9e34 52bc
000001e0: 4f64 ba3c 9bc8 4cbd a8b0 2ebd 449e e53c
000001f0: ad2a 8dbd f651 58b8 1367 a7bb e8e4 d33a
00000200: 6647 d5bd a915 ac3a 722c 44bd 0930 25bd
00000210: 142b a03d ba8c 613c 11b6 d6b9 3fba 6e3d
00000220: 0efe 43be 8f85 81bd 0636 94ba 0c1a c6bc
00000230: 1830 c23c 2b42 82bd 2dca b8bd a466 8a3c
00000240: 9632 07ba 85d5 82bc 6b89 753a 9586 9d3c
00000250: d4ca 4e3d 21ce 49bd 2a3a b13d af93 e33c
00000260: 1f02 b13d 180d 033c 95c6 46bd 8484 36bd
00000270: 4336 2c3d 2c50 babd d5eb 5d3d 66a0 3d3c
00000280: 9a3f 89bc 4f1a fdbd 3c36 9cbd 95f9 24be
00000290: d39a eb3d 844e b2bd d62d 60bd 8e08 383d
000002a0: 39e0 763d 8ff2 83bd 2979 89bd 7ba2 203d
000002b0: 84a9 833d 70d4 a0bd e452 243d 36f3 1a3b
000002c0: 2b08 853d a956 2e3d d26f 143d 5a16 6dbb
000002d0: 0032 803d 9359 323d fb55 30bc 584c 4abe
000002e0: 252f 093d 1994 2cbd b50b a13d 5562 a03c
000002f0: 98d7 e9bd 145a e73b 8668 4d3d 0f79 2e3c
00000300: b0f8 483d 84b9 59bc a4a7 5dbe 498b 0e3c
00000310: 13b0 943b 1e91 da3d d479 adbd c665 0bbe
00000320: aa9c c43c a137 403d 5d4e 0d3d 0342 233d
00000330: fb78 6f3d f641 143d 6305 ddbc 2289 493d
00000340: e0b9 233d 6256 e03c ad06 043d 530c 9f3b
00000350: e2d3 85bd 296d 483c 7195 b0bd 131c 77bb
00000360: 68e3 113d e3e2 9bb9 6747 babd 3ecb f43d
00000370: 820d 5bbd ef17 773d 47e9 963d b162 943d
00000380: 10e4 623c 5090 073d f5d0 243d 1019 7bbc
00000390: 0d13 ce3c 16ec 0fbc e60a 96bd 8d48 69bc
000003a0: db1d 353d 22d7 a8bc 1e99 743d 3a47 993d
000003b0: 700c d9bc 18ab 4ebb 479c 97bd a9e0 d93d
000003c0: f351 003e 8256 af3c 4395 67bd c6f1 0bbd
000003d0: 8e9a d8bc e6d2 c13d 412b 5abd 6d8c 403d
000003e0: 8ea0 613d 9d26 5f3c 7c9d dbbc f466 1bbd
000003f0: 349a debd 20f8 a9ba e9ca 5b3d 4cac 333d
0.047991812 -0.08959623 -0.0033534106 -0.07710351 -0.026689224 0.02624953 -0.07880625 -0.036760237
-0.0072984267 0.07742451 0.017496636 0.04116846 -0.002306514 -0.101080626 -0.09271026 -0.08402455
-0.037493043 0.020140834 -0.013944738 0.11136365 -0.00791804 -0.041381564 -0.050820626 0.0810715
-0.0042675575 0.13546127 -0.007716904 -0.0009514254 -0.060850833 -0.031874616 -0.06295288 0.0036040796
-0.051734824 -0.014237775 -0.060892217 0.02928111 0.13922678 0.042752907 0.001540062 -0.043719724
0.10941482 -0.12496412 0.071773954 -0.10999926 0.009927682 -0.035551846 -0.018918933 -0.053940307
-0.0012117927 0.09472018 -0.018788673 -0.053333595 0.025631966 -0.15631242 -0.03508192 0.06916909
0.088928126 0.002764129 0.0037327101 -0.048282187 0.06370903 0.044296175 0.10384158 -0.010064438
0.102996476 -0.0654341 0.057355113 0.06515202 0.046500202 -0.08369818 0.0028022672 0.097806804
0.12518023 -0.055969987 0.019674547 -0.035854444 -0.15693448 -0.12172301 -0.12686047 -0.011733226
-0.036629852 -0.046856612 0.024087189 0.01807718 0.023311982 0.014675651 -0.11810457 0.101789795
-0.022974677 0.06385246 0.0069326404 0.06991684 0.043782637 0.04308543 -0.007685349 0.015247284
0.046974726 0.029341543 0.10733541 -0.10305119 0.09257844 -0.043365795 -0.12929545 -0.08379693
0.004033216 -0.05561213 0.14998588 0.07784317 -0.099770114 -0.049309377 -0.055266917 0.057454366
-0.011577359 -0.019283792 0.044431053 0.024982432 -0.08866895 0.0027672932 0.06144897 -0.012829928
0.022752909 -0.049996 -0.04264894 0.028029568 -0.068929054 -5.1574745e-05 -0.005108723 0.0016166242
-0.10414009 0.0013129014 -0.04789395 -0.040329013 0.078207165 0.013766462 -0.0004095291 0.058283087
-0.19139883 -0.063243024 -0.0011307604 -0.024182342 0.023704574 -0.06360277 -0.09022937 0.016894646
-0.0005157379 -0.015970955 0.0009366485 0.019229213 0.0504864 -0.049268845 0.08653672 0.027780382
0.08642983 0.007998727 -0.048529226 -0.04455997 0.042043936 -0.09097323 0.054179985 0.0115738865
-0.01675396 -0.123585336 -0.07627532 -0.16110833 0.1150414 -0.08706382 -0.054731213 0.044930033
0.06027243 -0.06442749 -0.067125626 0.039217453 0.06428817 -0.07853019 0.040118113 0.00236435
0.064956985 0.042563114 0.036239453 -0.0036176653 0.06259537 0.043542456 -0.010762687 -0.19755685
0.033492226 -0.042133424 0.07863561 0.019578138 -0.11418074 0.0070602987 0.05014851 0.01064898
0.049065292 -0.013288859 -0.21645981 0.0087002 0.0045375912 0.1067221 -0.084705025 -0.13613042
0.024000484 0.04692805 0.03449856 0.039857876 0.058464985 0.036195718 -0.026980108 0.049203046
0.039972186 0.02738494 0.03223293 0.004853764 -0.06534554 0.012233057 -0.08622254 -0.0037705943
0.035617262 -0.00029732948 -0.0909565 0.11952828 -0.05347968 0.06032556 0.07368713 0.072453864
0.01384832 0.03309661 0.04023834 -0.0153258 0.025155568 -0.008784315 -0.073262975 -0.014238489
0.044217926 -0.020610396 0.059716336 0.074842885 -0.026495188 -0.0031535085 -0.074028544 0.10638554
0.12531261 0.021403555 -0.05653883 -0.03416612 -0.026440885 0.09464054 -0.053263906 0.04700892
0.055084758 0.013620046 -0.026808493 -0.03793998 -0.10869256 -0.0012967624 0.053660307 0.043865487

model/pi_fc0/MatMul f4 [512, 120]
00000000: d929 3f3e b157 ae3d f3d0 383c 83ce 45bc
00000010: 65b5 0cbd dadb 9abd c168 8b3d 2448 7e3d
00000020: ed98 b33d 62ee 3cbd 6a1d 803d cf4e c53c
00000030: 4f46 b63d 5e42 5a3d 5117 da3c 47fa 37bc
00000040: a6a8 07be b536 4dbb 4cd9 9d3d 7daf 023d
00000050: 0b4e b03d 555d 90bc a4e9 1d3c 0cb6 063d
00000060: 79a5 a3bc 4518 1e3d 9032 08bd 7a64 313d
00000070: 4c4f 55bd 7b5a 773c 8763 debc 07fc 94bc
00000080: b6e0 343d ed73 f53d cc3d fbbd 29db fc3d
00000090: e4a0 b9bd 0a09 02bd b6c6 793d 4c6d 113d
000000a0: d994 473d 9c6f 70bc a897 3fbd b812 46bd
000000b0: b210 2cbd fbaf 53bc d38f cb3c fb5e 853b
000000c0: f860 65bd f31e 2ebd 3353 e8ba 8307 813c
000000d0: 83b7 a6bd d73e 19bb b375 b83c 1fbb 75bd
000000e0: cc64 b23d 35df 373b 1646 1abb bc48 b3bd
000000f0: fdce 953c b214 d83a be9d 963d 596d b53d
00000100: b3d3 95bd 3085 a43d dd0f c73d df8d c23c
00000110: 10c1 d73d 0d90 68bd 6d40 53bc f4bc 90bd
00000120: fcfa 77bd 7047 b73d abd6 2f3e 24a4 5a3c
00000130: f407 a83c 3337 ba3d 83bf 3d3d 4f1b 13bd
00000140: 4a98 b9bc de7b 87bc 58ce 0abe dea7 16bd
00000150: 74ef be3c 0f66 42bc 740c d63d d684 2bbd
00000160: eb31 973d d28d a73d 81c5 eabc 3fa6 173b
00000170: 7d02 94bc f240 3ebd b719 e2bd 696a 22bc
00000180: 3c7d 66bd 48f7 b13d dfd7 1cbc 1308 bebd
00000190: d478 f73d 0e52 353c 6ca3 5d3d a801 db3d
000001a0: 7a0f a2bc a6a2 e03c 76bd 98bd 746c b13d
000001b0: 9973 88bd 3cec 223d c048 1f3d cba6 553d
000001c0: b1ae ca3d 9d30 35bc f129 8ebc 467e 4bbd
000001d0: ba17 54bd 2adb 6fbd afe3 a0bc 6aef bc3d
000001e0: e2a9 75bd d1ef 083d 01d1 c73d 09e9 05bd
000001f0: 0ae4 913d 52af 9b3d 0753 c8bc 7d23 a03c
00000200: 2378 86bb 8894 383d 20cd 353d d991 b03d
00000210: 992e 083e 6799 613e c85f c23c 0576 3cbd
00000220: 2ddd febb e6e1 713c 9940 803b e14b 61bd
00000230: c8db d6bd 4d29 ce3b 100f 92bc 5055 33bd
00000240: 00a1 15bd 30b8 5738 2438 c83d c3d1 97bc
00000250: b84b b43b 6f93 2b3d 5e79 003e 9c8a 0c3b
00000260: ab1e 74bc 6f1e 27bc ef82 22bd 6ac8 f9bc
00000270: b33d d83c 6112 183e 6a6b bbbd 27c1 e1bd
00000280: 1fa4 463d 4018 7ebc baf4 8ebd dc96 64bd
00000290: 976a 57bc 7cc6 f53c a8b4 243d fb61 f2bb
000002a0: c910 64bd 98ce 84bc 281a b23d 2bd6 203c
000002b0: e328 053d f034 6fbd 2dd3 123e 5248 6dbd
000002c0: 751b 223d b538 893d 4c45 013e b085 9f3d
000002d0: e5dc 5ebd efa3 093d ca1b c5bd ba05 c73d
000002e0: 95a0 683d ea60 c5bc a12e 253d 70ba 5c3d
000002f0: ed2d 16bd d37b 0b3d c625 853d 9265 8dbb
00000300: 6703 203d 100e 1b3e 4e15 35bc 313d f3bc
00000310: 5e92 6b3d 58fa 6e3d 551b 8bbd 32a7 953d
00000320: e68c e43b e134 bebc 0e7f 033d 0e6a b53d
00000330: 7aa6 8b39 dfc9 28be 5d4f 18bd 7bb8 543d
00000340: 1b2f bbbc 36bb d9bc 8cb4 38be 1bbe 4d3d
00000350: 5694 b3bd 1e18 0abd 8664 d0bd 32c0 b3b9
00000360: 89ef eb3c cf76 4bbd dda9 25bd cbab 35bd
00000370: 3cbc f3bd 09e3 653c c235 d93d cd68 16bc
00000380: 3230 823d 190e c33c 5c76 f83c 8316 1abd
00000390: 52d2 c43d ae4d b4bd 9675 613d 628b 5abd
000003a0: f7ce 90bd 65dc 0a3e 16a3 b73d 49ac 45bd
000003b0: ffb5 c23c f8c3 d93d 25cc 883d 7f31 753d
000003c0: bb62 8b3d 85a1 76bc 26ca a53c 34b8 a83d
000003d0: 7132 98bd 3341 b43d c10a 843c fd90 3e3e
000003e0: 5e3c 99bc 91e5 0ebd 935a 433b 5520 283d
000003f0: 850a 193c 81cb 453e 5278 393d bfef 7f3c
0.18668307 0.085128196 0.011280286 -0.012073162 -0.03435268 -0.075614646 0.068070896 0.062080517
0.08769403 -0.046125777 0.0625561 0.02408543 0.08900129 0.05328595 0.026622446 -0.011229104
-0.13247928 -0.0031313126 0.07707462 0.03190564 0.086086355 -0.01762263 0.009638224 0.032888457
-0.019976364 0.038597364 -0.033251345 0.043308713 -0.052077577 0.015097256 -0.027147068 -0.018186582
0.044159614 0.11985002 -0.12267646 0.12346489 -0.090638906 -0.0317469 0.06098052 0.035504624
0.048725937 -0.014675047 -0.04677549 -0.048357695 -0.04200811 -0.012920375 0.024848854 0.0040701604
-0.05600068 -0.042509984 -0.0017724991 0.015750652 -0.08140471 -0.0023383403 0.02251706 -0.059992906
0.08710632 0.0028056626 -0.002354031 -0.08754107 0.018287176 0.001648566 0.07354306 0.08858747
-0.07315769 0.08033216 0.097198226 0.02374929 0.105348706 -0.056778003 -0.012893778 -0.0706729
-0.06054209 0.089491725 0.17171733 0.013344798 0.020511605 0.0909256 0.046325218 -0.035914715
-0.022655625 -0.016538557 -0.13555276 -0.036781184 0.02330754 -0.011865153 0.10451594 -0.04187473
0.07382568 0.08181347 -0.02865863 0.0023139862 -0.018067593 -0.046448655 -0.11040061 -0.0099130655
-0.056271777 0.08689743 -0.009572952 -0.09278884 0.12083593 0.011066927 0.05411093 0.10693675
-0.01978277 0.027421307 -0.07458012 0.08663264 -0.066626735 0.039776072 0.03888774 0.05216102
0.09896601 -0.011058954 -0.017353984 -0.04968097 -0.05178044 -0.05855862 -0.019639818 0.09225352
-0.059976466 0.03343183 0.09756661 -0.032692943 0.07123573 0.07601799 -0.024453653 0.019548172
-0.004103677 0.045063525 0.044385076 0.08621568 0.13299026 0.22031175 0.023727313 -0.04601099
-0.007777831 0.014763331 0.0039139506 -0.055004004 -0.10491139 0.0062915445 -0.017829448 -0.043782532
-0.036530495 5.1431532e-05 0.09776333 -0.01853264 0.0055021904 0.04188865 0.12546298 0.0021444922
-0.01489989 -0.010200127 -0.03967565 -0.030491073 0.026396608 0.14850761 -0.09151347 -0.11023169
0.04849636 -0.015508711 -0.06980272 -0.055807933 -0.013147972 0.030001871 0.04021135 -0.007396934
-0.05568007 -0.016211793 0.08696395 0.009816687 0.032509696 -0.058400095 0.1433837 -0.0579303
0.039576966 0.06700269 0.12624091 0.07789171 -0.05440988 0.033603605 -0.09624441 0.09717889
0.056793768 -0.024094064 0.040327672 0.05388874 -0.036664892 0.034053635 0.06501345 -0.0043150866
0.039065745 0.15142083 -0.011052443 -0.029692264 0.057512634 0.058344215 -0.067923225 0.073072806
0.006974804 -0.023218574 0.03210359 0.08858119 0.0002663618 -0.16483258 -0.03718506 0.051933747
-0.02284961 -0.026578527 -0.18037623 0.050230127 -0.08768527 -0.033714406 -0.10175423 -0.00034284737
0.028800743 -0.04967385 -0.040445197 -0.044353288 -0.11901137 0.01403118 0.106059566 -0.00918026
0.06356849 0.023810433 0.030329876 -0.037619125 0.09610428 -0.08803879 0.05504378 -0.053355582
-0.070707254 0.13560636 0.08966653 -0.048260007 0.023768423 0.10633081 0.066795625 0.059861656
0.06805941 -0.015053158 0.020237993 0.08238259 -0.07431496 0.08801498 0.01611841 0.18609996
-0.018705543 -0.0348869 0.0029808625 0.04104646 0.009340887 0.19315912 0.045280762 0.015621125

model/pi_fc1/MatMul f4 [256, 512]
00000000: ac6b a03b 3ef5 0d3e 1ec4 9bbd 8ab8 15bd
00000010: ba49 323c c9b5 4bbd 8668 a8bd 8a09 ebbc
00000020: fe10 b03d 94b5 db3d 1a4b 6a3d f21d 1e3c
00000030: 8678 2ebc cc58 fa3c 9631 723c e74b 63bd
00000040: c23e 40bb 2954 14bc 1f0d 00bc cce2 3f3d
00000050: 7270 453d 2e8a f4bc 4b1d 9cbd e2b3 06bb
00000060: 5bb4 e33d acef 93bd 5ba1 4b3c efc5 9a3d
00000070: 4e5d 443c 0f28 873d aba8 803d 25a7 ed3d
00000080: e275 e0bc f8f6 22bd 3b37 03bd d017 8bbd
00000090: 0f0a 78bd 06e5 fc3b 5fa5 2f3d 9fee b3bb
000000a0: 2fe8 d93d 810a a73d 4144 383d 7e8a 95bd
000000b0: e4da f63d 9766 553d 9b9d cebc cecc 423d
000000c0: 2712 17bc 964c 08bd ca9b 20bd de72 5d3d
000000d0: 014f 72bc 486d 983d ba48 abbd 4d2e 09be
000000e0: 6de5 e5bd 7593 bc39 99dd 15bc 845d fabd
000000f0: 5d6a 693c 85db 223d 85f4 633d 8ac3 c3bd
00000100: 8ed5 603d 3b2e 123e c0f3 79bd 165e dcb9
00000110: ceaf 54bc 19fb 323c c386 463d 9063 1b3c
00000120: c3a9 01be 77ec c23d f61c 27bd 12a5 adbd
00000130: 067c 0e3c d000 843d bc2a 79bc fa84 2e3d
00000140: 7123 a2bd 640d dcbc 7edb 373b db70 32bd
00000150: b04f cd3d d09c 2b3d a1bc 18bb d55d 003d
00000160: a004 9abc 7c15 293d 4ece 583c 1b8d 453d
00000170: ce27 b43c 98d2 96bd 2d68 cd3d ccd1 5bbc
00000180: d6ed 7abd 5ade ab3d f57c f0bd 2749 a5bd
00000190: 48a9 06bb 36ad 1f3d e7bf a1bd e014 51bb
000001a0: fa88 c1ba 4e58 ce3d cf92 85bc 535f 3dbd
000001b0: 604c e2bc 5273 093d 0056 f3bc 96b9 fabd
000001c0: 9812 bcbc 554d 1d3d 46f1 0fbe 9726 cd3c
000001d0: c6d6 8f3c 060a ad3c 709c fe3b d192 853d
000001e0: 9c3a 243c 8af3 933c 8190 7f3c 152c aa3d
000001f0: aaa7 f63c 3720 123d cc2e 053d 8299 ca3c
00000200: b04c 7cbd 1b40 6d3d 79c6 da3c 6438 04ba
00000210: 1635 ec3c b555 a93d 6361 26bd cab8 d1bd
00000220: f521 7cbd f757 06bd 4c84 393d b5bf c23b
00000230: 8c67 b0bd 53ed fabd 0822 9d3c 0188 b53c
00000240: f25f f7bc db64 253d 7e1a 4b3d 0599 db3b
00000250: 728a 043d 209c 5c3d 96fe a03c 6cbf bb3d
00000260: 3d6c a53d 9823 cf3d 60fd bd3c e749 093d
00000270: ca5e bebc 2fd1 043c c6fb 703d eba7 373d
00000280: a898 a13d 68a0 0d3e 33d0 f13a 438a 153b
00000290: 2062 033d aa5b 19bd 7279 863c 8671 183d
000002a0: 9784 143d 39ec 6a3d c937 40be 4290 b1bc
000002b0: 96a2 a93d a70c efbd 745e 0dbe 6864 8dbd
000002c0: 0291 4f3d 17f3 d3bc 6ce4 a7bc a199 7b3c
000002d0: 3959 86bd 4b91 093d 047c 5dbc 8e89 c33b
000002e0: ca62 a73d 369f 89bc b742 ecbc 5e5a b6bc
000002f0: acac 7f3c ff94 12bd 412e c7bc 8dea b73c
00000300: 02c0 9cbd 6a84 01bd 3c46 1d3c daae d3bb
00000310: 7286 0cbc 921c 35bd a9ca 093c d128 0f3c
00000320: bfd3 d53d 1b79 25be a041 90bd 01dc 05bd
00000330: 908d bf3d 5a0c b93c fc68 7cbd 5ebc 00bc
00000340: 4529 e63d 7e3b 65bd 49c0 c9bc 8a25 373e
00000350: 1101 903d 0ff3 1ebd 6e9d 6abd b136 b5bc
00000360: 9519 0d3c c1b4 e83b 0866 163d 0844 b4bc
00000370: ee4d 823d 14af 0e3c 4b8a 923c 8e3a 2d3d
00000380: f6ff ac3d 247d e9bc 907b 7d3d c99b 72bd
00000390: 9491 403e 4100 b6bc 8e4b 483c 4755 973d
000003a0: 7185 1b3d e38a d63b f39f 79bc 115c ad3c
000003b0: 1216 a33d 891a 28bd 7eed ddbd 6701 dc3c
000003c0: 95c7 2ebb 0517 6dbd b202 963d a802 7e3d
000003d0: 14cc 65bd 8531 80bd 940d 933d 58a5 133e
000003e0: 1c1e e63c 0ea9 9bbd f398 b43c ffe5 43bd
000003f0: 8301 883d d013 1fbd 5b21 afbc a4de 34bc
0.004895648 0.13863084 -0.07605766 -0.036552943 0.010881836 -0.04973391 -0.08223061 -0.028691072
0.08596991 0.10727993 0.05720053 0.009650694 -0.010648852 0.03055992 0.01478233 -0.055492308
-0.0029334282 -0.0090532685 -0.007815628 0.04684715 0.04820294 -0.029851045 -0.07622775 -0.0020553996
0.111183845 -0.07223448 0.012428607 0.07557284 0.011985136 0.065994374 0.06282171 0.11604146
-0.02739996 -0.03978631 -0.032035094 -0.06791651 -0.060556468 0.0077177314 0.04288232 -0.0054910923
0.10639989 0.081563 0.044986967 -0.07301806 0.12053469 0.05209979 -0.025221637 0.0475586
-0.009220636 -0.033276163 -0.039211072 0.054064624 -0.014789344 0.07442719 -0.08363481 -0.13396569
-0.112254 0.00035968018 -0.009147071 -0.12224868 0.01424655 0.03976013 0.055653114 -0.095587805
0.05489116 0.14275448 -0.061023474 -0.0004203177 -0.012981368 0.010924124 0.048468363 0.009484187
-0.12662415 0.09517758 -0.040799104 -0.0847875 0.008696562 0.064454675 -0.015207943 0.042607285
-0.07916916 -0.026861854 0.0028054412 -0.04356466 0.10024965 0.041897595 -0.002330579 0.031339485
-0.018801033 0.041280255 0.013232781 0.04823027 0.021991637 -0.07364386 0.100296356 -0.013416719
-0.061261974 0.083920196 -0.11742584 -0.08070593 -0.0020547677 0.038983546 -0.078979306 -0.0031903312
-0.0014765554 0.100754365 -0.016305355 -0.046233486 -0.027624309 0.033557244 -0.029704094 -0.12242429
-0.022958085 0.038403828 -0.14056882 0.025042815 0.017558467 0.021122944 0.0077701136 0.06522144
0.010023739 0.018060464 0.015598417 0.08309189 0.030109245 0.035675254 0.032515332 0.024731401
-0.061596572 0.057922464 0.026705967 -0.0005043803 0.028833907 0.082683004 -0.04062022 -0.10240324
-0.06155582 -0.032798734 0.045292184 0.0059432634 -0.086135 -0.12252297 0.019181266 0.022159578
-0.030197117 0.040379386 0.04958581 0.006701591 0.032358594 0.05385983 0.019652646 0.0916737
0.080772854 0.10114211 0.023192108 0.033517744 -0.023238558 0.008106514 0.05883386 0.044837873
0.07890445 0.13830721 0.0018448889 0.0022818006 0.032076 -0.037440933 0.016415332 0.03721764
0.03625926 0.057354186 -0.1877128 -0.021675233 0.08282964 -0.11672335 -0.13805562 -0.069039166
0.0506754 -0.02587275 -0.020494662 0.015356452 -0.065599866 0.033585828 -0.013518337 0.0059673255
0.081731394 -0.01679955 -0.028840406 -0.022259887 0.015605133 -0.035786625 -0.024314048 0.02245071
-0.0765381 -0.03162042 0.009599265 -0.006460053 -0.008576976 -0.0442167 0.008410134 0.008737759
0.10440778 -0.1615948 -0.07043767 -0.032680515 0.09353173 0.022588897 -0.06162356 -0.00785741
0.1123834 -0.05596494 -0.024627822 0.17885414 0.070314534 -0.038806017 -0.057279043 -0.022120805
0.008612056 0.0071016257 0.0367184 -0.022005096 0.0636252 0.008708734 0.017888209 0.04229217
0.08447258 -0.028502055 0.061885417 -0.0592306 0.18805534 -0.022216918 0.012225045 0.07389312
0.037969057 0.0065473183 -0.015235889 0.021162065 0.07963194 -0.04104093 -0.10836314 0.026856137
-0.0026669253 -0.05788328 0.07324733 0.062014252 -0.056102827 -0.06259445 0.07180324 0.14418542
0.02809053 -0.07600604 0.022045588 -0.047826763 0.06640913 -0.038837254 -0.02137821 -0.01103941

model/mul f4 [8, 256]
00000000: 0000 0000 0000 0080 0000 0080 0000 0080
00000010: 0000 0080 0000 0000 0000 0080 0000 0080
00000020: 0000 0080 0000 0000 0000 0000 0000 0000
00000030: 0000 0080 0000 0080 0000 0080 0000 0080
00000040: 0000 0080 0000 0000 0000 0080 0000 0000
00000050: 0000 0080 0000 0080 0000 0080 0000 0000
00000060: 0000 0080 0000 0000 0000 0080 0000 0080
00000070: 0000 0080 0000 0080 0000 0080 0000 0000
00000080: 0000 0080 0000 0080 0000 0080 0000 0000
00000090: 0000 0000 0000 0000 0000 0000 0000 0080
000000a0: 0000 0000 0000 0080 0000 0000 0000 0080
000000b0: 0000 0000 0000 0080 0000 0080 0000 0080
000000c0: 0000 0080 0000 0000 0000 0080 0000 0080
000000d0: 0000 0000 0000 0080 0000 0080 0000 0000
000000e0: 0000 0000 0000 0000 0000 0000 0000 0080
000000f0: 0000 0000 0000 0000 0000 0000 0000 0080
00000100: 0000 0000 0000 0080 0000 0000 0000 0000
00000110: 0000 0000 0000 0080 0000 0000 0000 0000
00000120: 0000 0000 0000 0080 0000 0000 0000 0080
00000130: 0000 0080 0000 0080 0000 0080 0000 0080
00000140: 0000 0080 0000 0080 0000 0000 0000 0000
00000150: 0000 0000 0000 0000 0000 0080 0000 0000
00000160: 0000 0080 0000 0000 0000 0000 0000 0000
00000170: 0000 0000 0000 0000 0000 0080 0000 0000
00000180: 0000 0000 0000 0000 0000 0000 0000 0080
00000190: 0000 0000 0000 0080 0000 0080 0000 0080
000001a0: 0000 0000 0000 0080 0000 0000 0000 0000
000001b0: 0000 0080 0000 0080 0000 0080 0000 0000
000001c0: 0000 0080 0000 0080 0000 0000 0000 0000
000001d0: 0000 0080 0000 0000 0000 0000 0000 0080
000001e0: 0000 0000 0000 0080 0000 0080 0000 0000
000001f0: 0000 0080 0000 0080 0000 0080 0000 0000
00000200: 0000 0080 0000 0000 0000 0080 0000 0080
00000210: 0000 0000 0000 0000 0000 0080 0000 0000
00000220: 0000 0080 0000 0080 0000 0080 0000 0080
00000230: 0000 0000 0000 0080 0000 0080 0000 0000
00000240: 0000 0080 0000 0080 0000 0000 0000 0000
00000250: 0000 0000 0000 0080 0000 0000 0000 0000
00000260: 0000 0000 0000 0000 0000 0080 0000 0080
00000270: 0000 0000 0000 0080 0000 0000 0000 0000
00000280: 0000 0080 0000 0080 0000 0080 0000 0080
00000290: 0000 0000 0000 0080 0000 0080 0000 0000
000002a0: 0000 0000 0000 0080 0000 0080 0000 0000
000002b0: 0000 0000 0000 0080 0000 0000 0000 0000
000002c0: 0000 0000 0000 0000 0000 0000 0000 0080
000002d0: 0000 0000 0000 0000 0000 0080 0000 0080
000002e0: 0000 0000 0000 0080 0000 0000 0000 0000
000002f0: 0000 0080 0000 0000 0000 0000 0000 0000
00000300: 0000 0000 0000 0080 0000 0080 0000 0000
00000310: 0000 0000 0000 0000 0000 0080 0000 0080
00000320: 0000 0000 0000 0000 0000 0000 0000 0000
00000330: 0000 0000 0000 0000 0000 0080 0000 0000
00000340: 0000 0000 0000 0000 0000 0000 0000 0000
00000350: 0000 0080 0000 0000 0000 0080 0000 0080
00000360: 0000 0000 0000 0080 0000 0080 0000 0000
00000370: 0000 0080 0000 0000 0000 0000 0000 0000
00000380: 0000 0000 0000 0000 0000 0000 0000 0080
00000390: 0000 0000 0000 0080 0000 0080 0000 0080
000003a0: 0000 0000 0000 0080 0000 0000 0000 0000
000003b0: 0000 0080 0000 0080 0000 0080 0000 0000
000003c0: 0000 0000 0000 0000 0000 0080 0000 0080
000003d0: 0000 0080 0000 0000 0000 0080 0000 0000
000003e0: 0000 0000 0000 0000 0000 0080 0000 0080
000003f0: 0000 0080 0000 0080 0000 0000 0000 0000
0.0 -0.0 -0.0 -0.0 -0.0 0.0 -0.0 -0.0
-0.0 0.0 0.0 0.0 -0.0 -0.0 -0.0 -0.0
-0.0 0.0 -0.0 0.0 -0.0 -0.0 -0.0 0.0
-0.0 0.0 -0.0 -0.0 -0.0 -0.0 -0.0 0.0
-0.0 -0.0 -0.0 0.0 0.0 0.0 0.0 -0.0
0.0 -0.0 0.0 -0.0 0.0 -0.0 -0.0 -0.0
-0.0 0.0 -0.0 -0.0 0.0 -0.0 -0.0 0.0
0.0 0.0 0.0 -0.0 0.0 0.0 0.0 -0.0
0.0 -0.0 0.0 0.0 0.0 -0.0 0.0 0.0
0.0 -0.0 0.0 -0.0 -0.0 -0.0 -0.0 -0.0
-0.0 -0.0 0.0 0.0 0.0 0.0 -0.0 0.0
-0.0 0.0 0.0 0.0 0.0 0.0 -0.0 0.0
0.0 0.0 0.0 -0.0 0.0 -0.0 -0.0 -0.0
0.0 -0.0 0.0 0.0 -0.0 -0.0 -0.0 0.0
-0.0 -0.0 0.0 0.0 -0.0 0.0 0.0 -0.0
0.0 -0.0 -0.0 0.0 -0.0 -0.0 -0.0 0.0
-0.0 0.0 -0.0 -0.0 0.0 0.0 -0.0 0.0
-0.0 -0.0 -0.0 -0.0 0.0 -0.0 -0.0 0.0
-0.0 -0.0 0.0 0.0 0.0 -0.0 0.0 0.0
0.0 0.0 -0.0 -0.0 0.0 -0.0 0.0 0.0
-0.0 -0.0 -0.0 -0.0 0.0 -0.0 -0.0 0.0
0.0 -0.0 -0.0 0.0 0.0 -0.0 0.0 0.0
0.0 0.0 0.0 -0.0 0.0 0.0 -0.0 -0.0
0.0 -0.0 0.0 0.0 -0.0 0.0 0.0 0.0
0.0 -0.0 -0.0 0.0 0.0 0.0 -0.0 -0.0
0.0 0.0 0.0 0.0 0.0 0.0 -0.0 0.0
0.0 0.0 0.0 0.0 -0.0 0.0 -0.0 -0.0
0.0 -0.0 -0.0 0.0 -0.0 0.0 0.0 0.0
0.0 0.0 0.0 -0.0 0.0 -0.0 -0.0 -0.0
0.0 -0.0 0.0 0.0 -0.0 -0.0 -0.0 0.0
0.0 0.0 -0.0 -0.0 -0.0 0.0 -0.0 0.0
0.0 0.0 -0.0 -0.0 -0.0 -0.0 0.0 0.0

model/mul1 f4 [8]
00000000: 0000 0080 0000 0000 0000 0080 0000 0000
00000010: 0000 0000 0000 0000 0000 0080 0000 0000
-0.0 0.0 -0.0 0.0 0.0 0.0 -0.0 0.0
