bittle_controller/output/bittle_frozen_model7.tflite (tflite, 660636 bytes, 7 tensors)

model/add f4 [1, 8]
-2.0794415 -2.0794415 -2.0794415 -2.0794415 -2.0794415 -2.0794415 -2.0794415 -2.0794415
00000000: 9215 05c0 9215 05c0 9215 05c0 9215 05c0
00000010: 9215 05c0 9215 05c0 9215 05c0 9215 05c0

model/pi/MatMul_bias f4 [8]
-0.01087014 0.0048646783 -0.009555016 -0.002443255 -0.0033001462 0.0008351164 0.0009361346 -0.00011043467
00000000: ac18 32bc e167 9f3b a48c 1cbc 041f 20bb
00000010: 4447 58bb b7eb 5a3a ee66 753a 2999 e7b8

model/pi/w/transpose f4 [8, 256]
0.017557196 -0.033611886 -0.0073938575 0.014741841 0.09682207 -0.0670556 0.03810245 -0.12961613
0.11305327 0.059983917 0.021559855 0.012585612 0.00017214823 -0.05166135 -0.044244077 0.07287933
0.07958611 -0.009039993 0.039416984 -0.038054846 0.02840454 -0.03420199 0.10052302 0.0032101308
-0.2021092 -0.027630406 -0.012645468 0.13181654 -0.00062736473 0.060239695 -0.0434571 -0.077527285
0.022314044 -0.03300914 -0.02438519 0.016801758 0.058732755 -0.0061149253 -0.015504151 -0.052354358
-0.06361932 -0.1050934 -0.044235073 0.041055683 0.046159953 0.027497582 -0.0044468823 -0.029011227
0.009221345 0.010338524 0.03648009 -0.05926619 0.0027626457 -0.09251802 0.013933487 -0.0045636036
-0.077327155 0.06729314 0.04773632 -0.029484354 0.05493219 -0.020479362 -0.031681843 -0.024904523
0.049032386 -0.028205382 -0.03671474 0.019405438 -0.122466914 -0.008871504 -0.08229752 0.0029562942
0.08733706 0.1452084 -0.054482657 0.036877614 -0.025145471 -0.005585569 0.009623313 0.1263942
-0.04485903 -0.05065724 -0.18516363 -0.011280871 -0.14155017 0.02899023 0.055449728 -0.085328475
0.09290276 0.042335007 0.049094286 -0.050865922 0.032016914 0.01773839 -0.02255604 -0.006614343
-0.107268535 0.046589293 -0.015003587 -0.030176967 -0.011916221 -0.085935205 0.114831835 -0.055738535
-0.1174447 0.02624296 0.115282945 0.06693129 0.056329686 0.113861084 -0.016789893 -0.13322008
-0.10072556 -0.015039028 0.054816864 0.012560624 0.021656893 -0.0064564943 0.039077554 -0.05622526
-0.0145812705 0.012174689 0.047250446 -0.011961166 -0.02481005 0.029307209 -0.012816293 0.024184488
0.14441514 -0.027731039 -0.022931486 0.009345287 0.025103023 -0.05488626 -0.040757485 0.0118443165
0.0069685197 0.070063554 0.054341357 -0.11108181 0.031262796 -0.08834579 -0.16407838 0.0031899302
-0.035061978 -0.11403368 0.07678021 0.056432493 0.026573706 0.1254949 0.02135474 -0.037263814
-0.009437622 0.07861607 -0.06212925 0.044531178 -0.0029660896 -0.107571885 0.07361273 0.10387152
0.17304824 -0.04412809 0.10803061 -0.09091723 -0.036735483 -0.116755545 0.04037265 0.068195686
0.04198525 -0.07933487 -0.00011013622 -0.034783658 0.033143915 -0.019961987 -0.02389265 0.012576317
0.021673676 0.014418317 0.07504368 0.013167018 -0.03494993 -0.0173984 0.04085832 0.029742057
0.049933247 0.11535487 0.049628396 -0.024511458 0.11665358 0.0018715478 0.06045833 -0.093540534
0.018999722 0.04048088 0.07119791 0.049556755 0.041743986 -0.066243045 -0.034204893 0.05342032
-0.0048028463 0.0233205 -0.06886042 0.01654127 -0.095338225 0.021464588 0.114443325 -0.020406606
-0.011611906 0.08417759 -0.09617083 -0.0072835432 0.060348563 0.030544328 0.022421306 -0.038715042
0.047610704 -0.05396045 0.0455168 0.06940525 -0.03156853 -0.04201284 -0.008230903 0.018259557
-0.03759356 -0.007114514 0.068207085 0.08025647 -0.033744782 0.09584013 0.018945588 0.12231974
-0.058549933 -0.019005537 0.086004026 0.08443677 0.04134771 0.033227503 0.029355397 0.0031484433
0.09084563 -0.09577681 0.165022 0.0056608715 0.0016250045 0.09285346 -0.04357279 -0.008480379
0.03621277 -0.013441346 0.021889936 -0.0025856115 -0.005703195 0.12971951 -0.09479833 0.028975656
00000000: 1cd4 8f3c 9eac 09bd 2c48 f2bb c387 713c
00000010: a64a c63d 7254 89bd 5111 1c3d 17ba 04be
00000020: 7988 e73d b2b1 753d 4b9e b03c e233 4e3c
00000030: b082 3439 da9a 53bd 4739 35bd c241 953d
00000040: 0bfe a23d 7b1c 14bc b473 213d 66df 1bbd
00000050: a3b0 e83c 6317 0cbd 03df cd3d 0f61 523b
00000060: b7f5 4ebe 2959 e2bc f02e 4fbc eafa 063e
00000070: bc75 24ba e6bd 763d 1200 32bd a0c6 9ebd
00000080: f1cb b63c 9834 07bd 73c3 c7bc d7a3 893c
00000090: c291 703d b65f c8bb 1f05 7ebc 8671 56bd
000000a0: d94a 82bd 353b d7bd d62f 35bd 012a 283d
000000b0: 3812 3d3d 9c42 e13c 27b7 91bb f4a8 edbc
000000c0: 2015 173c ea62 293c 266c 153d 1bc1 72bd
000000d0: 810d 353b 167a bdbd 4849 643c 488a 95bb
000000e0: b35d 9ebd fcd0 893d 2987 433d 2c89 f1bc
000000f0: 9300 613d 56c4 a7bc d2c4 01bd 9204 ccbc
00000100: 2fd6 483d f90e e7bc 3262 16bd 27f8 9e3c
00000110: efcf fabd c959 11bc 9a8b a8bd 63be 413b
00000120: c6dd b23d 83b1 143e 3529 5fbd fb0c 173d
00000130: e0fd cdbc 2607 b7bb 1aab 1d3c 7b6d 013e
00000140: 1abe 37bd f77d 4fbd 899b 3dbe 67d3 38bc
00000150: 87f2 10be eb7c ed3c 411f 633d b2c0 aebd
00000160: cd43 be3d 7967 2d3d 1717 493d c958 50bd
00000170: 2b24 033d 1a50 913c 72c7 b8bc 21bd d8bb
00000180: 9baf dbbd 6ad4 3e3d 9bd1 75bc b035 f7bc
00000190: 413c 43bc ccfe afbd f42c eb3d 174e 64bd
000001a0: d986 f0bd 7afb d63c 7719 ec3d 4613 893d
000001b0: f5b9 663d 0030 e93d f58a 89bc d86a 08be
000001c0: 3449 cebd 4166 76bc a687 603d 13cb 4d3c
000001d0: cc69 b13c 0091 d3bb c90f 203d 754c 66bd
000001e0: 48e6 6ebc 5978 473c af89 413d c4f8 43bc
000001f0: 723e cbbc ac15 f03c 6efb 51bc 8c1e c63c
00000200: 90e1 133e 342c e3bc d0da bbbc fa1c 193c
00000210: dba4 cd3c 6ad0 60bd 52f1 26bd aa0e 423c
00000220: 2e58 e43b 7b7d 8f3d 0b95 5e3d dc7e e3bd
00000230: 6b0d 003d a3ee b4bd 2a04 28be 260e 513b
00000240: 269d 0fbd 7d8a e9bd f13e 9d3d c225 673d
00000250: 1ab1 d93c bc81 003e 23f0 ae3c f1a1 18bd
00000260: 41a0 1abc 7601 a13d 3e7b 7ebd 5366 363d
00000270: ba62 42bb a64e dcbd 45c2 963d 97ba d43d
00000280: 8f33 313e a8bf 34bd 273f dd3d d032 babd
00000290: f277 16bd 881d efbd cb5d 253d 2eaa 8b3d
000002a0: baf8 2b3d 527a a2bd eff8 e6b8 4f79 0ebd
000002b0: eac1 073d 5287 a3bc 85ba c3bc e60c 4e3c
000002c0: fe8c b13c ce3a 6c3c 80b0 993d 7aba 573c
000002d0: a827 0fbd 1787 8ebc 0e5b 273d 9da5 f33c
000002e0: ce86 4c3d 2d3f ec3d 2547 4b3d 41cc c8bc
000002f0: 12e8 ee3d b94e f53a 27a3 773d 2e92 bfbd
00000300: 4ea5 9b3c 47cf 253d 36d0 913d 06fc 4a3d
00000310: befb 2a3d 6faa 87bd 6e1a 0cbd 44cf 5a3d
00000320: 3261 9dbb a20a bf3c b106 8dbd 8f81 873c
00000330: b040 c3bd 81d6 af3c 4361 ea3d c12b a7bc
00000340: dd3f 3ebc 4d65 ac3d 36f5 c4bd caaa eebb
00000350: 0e30 773d 1938 fa3c e3ac b73c aa93 1ebd
00000360: 7103 433d a205 5dbd d36f 3a3d 5724 8e3d
00000370: 014e 01bd a815 2cbd e9da 06bc 1195 953c
00000380: b4fb 19bd de20 e9bb 28b0 8b3d 815d a43d
00000390: f837 0abd d447 c43d c733 9b3c c682 fa3d
000003a0: 0ed2 6fbd 80b1 9bbc e122 b03d 2fed ac3d
000003b0: 375c 293d 9019 083d bb7a f03c 1d56 4e3b
000003c0: 460d ba3d a226 c4bd 87fb 283e d57e b93b
000003d0: 1afe d43a f429 be3d 6279 32bd 4af1 0abc
000003e0: d753 143d 1739 5cbc 8652 b33c 5d73 29bb
000003f0: dee1 babb 31d5 043e a025 c2bd 5b5e ed3c

model/pi_fc0/MatMul_bias f4 [512]
-0.0027588368 0.008628438 0.005821924 -0.0029276577 0.000490504 0.0033960529 -0.004749576 0.007952082
0.0030309677 -0.002225288 0.0037669162 0.0063791494 5.848717e-05 -0.009292204 0.005428538 -0.0060098283
0.0025565934 0.02407808 0.00970273 0.008198697 0.007277908 0.00095941185 0.013966715 0.011215458
0.010495356 0.001790257 0.0089071635 0.0034447138 0.011567293 -0.0035319426 0.0003581718 0.0053160703
0.0032433977 0.0018821084 -0.0027965838 0.0015428228 -0.0021588418 -0.02162084 0.008926585 -0.005094439
0.009950429 0.010758781 -0.0011653104 -0.005029015 -0.001778345 -0.0015215782 0.008966452 0.018930793
-0.0019797483 0.00066745124 0.0023747126 0.014756347 0.017617598 0.0042217057 -0.015666042 0.0063518435
-0.00092694745 -0.0034331658 0.008057445 0.010030611 0.00124573 0.01547161 0.0015479069 0.009309161
0.016296381 -0.0067523574 0.007420507 0.0022037225 -0.010964268 -0.0022726427 0.00082655705 0.0036670773
0.0029770979 0.0051934505 -0.00014253448 0.015923101 0.007814792 0.005484107 0.013917824 0.0046949754
0.010068586 0.004692247 0.0006040843 -0.00043769175 -0.011472111 -0.008568421 0.004408379 -0.0076075075
-0.0018211248 0.026051503 -0.005352775 0.009148661 0.0005074044 -0.017466117 0.0075474204 0.008882627
0.0031197425 0.0009167741 -0.0011487483 -0.0019057194 -0.002329907 0.008469662 0.0020367152 -0.00057959306
0.0043524615 0.005538901 -0.000302979 0.007792688 0.005531396 0.002676206 -0.0016352226 -0.0067826114
-0.001984762 0.0027215043 -0.0029829636 0.002555193 -0.0094294045 0.010990901 0.0057744235 0.0027398332
0.007253254 0.0067236517 -0.0061888723 0.010704927 -0.013033553 -0.0032267256 0.010909226 0.0061102468
0.012147777 -0.0059651555 0.01042572 0.0022752401 0.0071616587 0.0038108437 0.0019175047 0.008946989
0.013556024 0.0053340173 -0.0066145486 0.0061101653 0.011709431 0.010437643 -0.0058226376 -0.0024721336
0.01816003 -0.003593588 0.0013540477 0.009369408 0.0048593767 0.007396263 -0.006273272 0.015780693
0.0008036487 -0.001420189 0.0042100674 -0.00043690696 0.0044024317 0.010887735 0.0018582435 0.000323631
0.019298512 0.0030157415 0.007933721 -0.004466426 0.007863601 0.0074568107 0.012062538 0.00391053
0.0053969044 0.001498623 0.0055544693 0.015905663 3.1554282e-05 0.018749887 0.001150704 -0.00023968748
0.0037120301 -0.007886028 -0.00053511315 0.01550185 0.008252874 0.012093537 -0.005579434 0.0002643966
0.013761761 0.0045603365 0.011867874 0.010277695 -0.0031455853 -0.0040650764 -0.0011522919 0.0056064194
-0.009397098 0.007944914 0.003999216 -0.0039067916 -0.0017008692 0.0042824447 0.0004967446 0.020343613
0.0027535984 0.0059304116 0.0012359564 0.010136437 0.01659978 -0.00231916 0.0015237924 -0.0048738406
0.0038240068 0.010342348 0.0040885545 -0.004017154 0.0026171196 -0.001141066 0.01207336 0.01425398
0.014001297 0.0070081353 0.0046926755 0.013035658 0.0014880723 0.00082463823 0.005279231 -0.0053061973
-0.003992994 -0.0028492745 0.0069316733 -0.006846585 0.014284823 0.0057798815 0.0029767668 0.0029689334
-0.0056872726 0.0072713336 0.006308114 0.010146275 0.0030105575 0.0018910173 -0.003057074 -0.0026734115
0.0061522187 0.019073237 0.022418939 -0.004836552 0.0065917186 -0.000108596236 -0.0009868846 0.0047826245
0.00438267 -0.0010083171 -0.00526759 0.005924373 -0.0036157088 -0.0035206547 0.0066200905 0.020525932
00000000: 9acd 34bb 4b5e 0d3c d7c5 be3b f2dd 3fbb
00000010: 2b95 003a 5090 5e3b 55a2 9bbb 7349 023c
00000020: 33a3 463b 23d6 11bb 5ede 763b 2f08 d13b
00000030: 1f50 7538 543e 18bc e1e1 b13b 18ee c4bb
00000040: 858c 273b 653f c53c 33f8 1e3c d453 063c
00000050: 847b ee3b 0a81 7b3a a6d4 643c 0ac1 373c
00000060: b7f4 2b3c 0fa7 ea3a 5aef 113c b5c0 613b
00000070: be84 3d3c 2a78 67bb 01c9 bb39 6e32 ae3b
00000080: 2f8f 543b 14b1 f63a e446 37bb 8b38 ca3a
00000090: 5b7b 0dbb 301e b1bc d040 123c 40ef a6bb
000000a0: 2007 233c 9945 303c 54bd 98ba 6fca a4bb
000000b0: 5b17 e9ba b16f c7ba 07e8 123c c014 9b3c
000000c0: aabe 01bb e5f7 2e3a 11a1 1b3b 9bc4 713c
000000d0: c852 903c 3c56 8a3b 1256 80bc 2023 d03b
000000e0: 64fe 72ba f7fe 60bb 6003 043c 6f57 243c
000000f0: c347 a33a a37c 7d3c 23e3 ca3a 7485 183c
00000100: fd7f 853c e142 ddbb b927 f33b 546c 103b
00000110: 79a3 33bc 9ef0 14bb 4ead 583a 5953 703b
00000120: 6a1b 433b d22d aa3b 4f75 15b9 2a71 823c
00000130: 9d09 003c 06b4 b33b 9607 643c 4fd8 993b
00000140: b6f6 243c 6cc1 993b 695b 1e3a fe79 e5b9
00000150: 85f5 3bbc 9062 0cbc 2a74 903b 6648 f9bb
00000160: cfb2 eeba f669 d53c 5566 afbb 44e4 153c
00000170: 5503 053a 1a15 8fbc 5a50 f73b 7088 113c
00000180: 9874 4c3b ab53 703a 9991 96ba 55c9 f9ba
00000190: 5ab1 18bb 56c4 0a3c 697a 053b d5ef 17ba
000001a0: 189f 8e3b ab7f b53b 27d9 9eb9 ce59 ff3b
000001b0: b640 b53b 4963 2f3b f754 d6ba ab40 debb
000001c0: c812 02bb 445b 323b d37d 43bb 0675 273b
000001d0: ca7d 1abc 2e13 343c 6037 bd3b c68e 333b
000001e0: b4ac ed3b 1452 dc3b 06cc cabb b863 2f3c
000001f0: af8a 55bc 7977 53bb 9cbc 323c 7738 c83b
00000200: 7807 473c 5a77 c3bb a4d0 2a3c 321c 153b
00000210: 59ac ea3b 59bf 793b c854 fb3a 6496 123c
00000220: 161a 5e3c fbc8 ae3b dbbe d8bb c837 c83b
00000230: ead8 3f3c a602 2b3c d3cb bebb 8503 22bb
00000240: 58c4 943c 6782 6bbb 4d7a b13a 2582 193c
00000250: 683b 9f3b 5a5c f23b 0590 cdbb 8346 813c
00000260: f4ab 523a a325 baba 9bf4 893b a910 e5b9
00000270: 4642 903b 7862 323c 4e90 f33a 04ad a939
00000280: ea17 9e3c bfa3 453b 70fc 013c 195b 92bb
00000290: 55d6 003c 4358 f43b f4a1 453c e723 803b
000002a0: 84d8 b03b 726d c43a 4402 b63b 984c 823c
000002b0: 2759 0438 5d99 993c 38d3 963a 9e54 7bb9
000002c0: 8845 733b 6634 01bc d646 0cba 79fb 7d3c
000002d0: 1037 073c f823 463c afd3 b6bb b69e 8a39
000002e0: 0279 613c e06e 953b 7971 423c c763 283c
000002f0: 2a26 4ebb 5534 85bb 8008 97ba 0eb6 b73b
00000300: 49f6 19bc 622b 023c db0b 833b 8b04 80bb
00000310: b3ef deba c053 8c3b f737 023a a6a7 a63c
00000320: b775 343b e653 c23b d1ff a13a 4c13 263c
00000330: 43fc 873c 0cfd 17bb fdb9 c73a bdb4 9fbb
00000340: 309c 7a3b f472 293c 48f9 853b 55a2 83bb
00000350: fb83 2b3b d28f 95ba 58cf 453c 8689 693c
00000360: b265 653c 80a4 e53b 04c5 993b 8393 553c
00000370: 6c0b c33a 892c 583a 66fd ac3b 9cdf adbb
00000380: a9d7 82bb e5ba 3abb 1723 e33b 5159 e0bb
00000390: e40a 6a3c 2965 bd3b dc15 433b 7092 423b
000003a0: 4d5c babb 5e44 ee3b 4cb4 ce3b 903c 263c
000003b0: c64c 453b 03dc f73a 3159 48bb 6734 2fbb
000003c0: 8d98 c93b 7a3f 9c3c eca7 b73c f07b 9ebb
000003d0: 58ff d73b 29be e3b8 5a5a 81ba 90b7 9c3b
000003e0: 809c 8f3b 8229 84ba bf9b acbb 3e21 c23b
000003f0: 87f5 6cbb c9ba 66bb 58ed d83b 0026 a83c

model/pi_fc0/w/transpose f4 [512, 60]
-0.008973145 -0.037930656 0.08061749 0.044664145 -0.0041177147 -0.10487924 -0.059330214 0.06886512
0.082284756 -0.065624 -0.0076981224 -0.042977057 0.10954944 -0.036883518 0.07698534 -0.13900228
0.07280735 0.0045143655 -0.035592355 -0.0792267 0.0075606606 -0.14884497 0.10121948 0.0053164135
-0.03365686 -0.016137 -0.11705768 0.03488685 -0.12291805 0.09951226 -0.036785502 -0.0317455
-0.04006505 -0.008444031 -0.035161655 -0.015656892 0.021715418 -0.037603874 -0.06745655 -0.033019118
0.013487325 -0.04309622 0.022979472 0.083296895 -0.014706752 0.089424185 0.03661868 0.05498068
0.03930138 0.024417339 -0.009684578 -0.07454567 0.028373271 -0.09294694 -0.0717762 0.06275141
-0.018017484 0.017612575 -0.017932912 0.028102128 0.066640116 0.0901468 -0.022905467 0.041945543
-0.11343048 0.0212361 -0.030102216 -0.02108252 0.051569924 0.071732625 -0.090718426 -0.0066397022
-0.072940245 -0.016730662 -0.024892278 0.0056052376 -0.06707269 -0.016584545 -0.03251785 -0.015967917
-0.03039282 0.0077759842 0.023885895 0.06670704 -0.069971085 -0.05437184 0.08238153 0.11370535
0.020891467 0.005462593 -0.0072814403 -0.05241167 -0.08661792 0.0021734198 -0.032354727 0.01629127
0.060567684 -0.033336665 0.020194408 0.11291177 -0.0083219465 0.15380399 0.08539322 -0.049048003
0.04343465 0.0397006 0.038171813 0.11421321 0.023073347 0.037379738 0.01751308 0.17000808
-0.019751728 0.08147808 -0.10891042 -0.07630374 0.02424931 -0.100000955 -0.010579399 0.07250021
0.038270265 0.11168971 0.008774703 -0.0481096 -0.026797105 -0.1265095 0.037834197 -0.009529294
0.018106077 -0.008343048 -0.08991272 -0.07450289 0.013487573 0.019682394 0.05535333 0.01621885
0.013900463 -0.011122832 -0.07375001 0.08764171 -0.017637024 -0.008926037 -0.026296921 0.14658344
-0.005228968 -0.0064738463 -0.0065707 -0.014906034 0.059712123 -0.04328908 -0.009437364 -0.12526396
-0.11949375 -0.06846214 -0.03960919 -0.05414204 0.0134191895 -0.022659848 -0.027376268 -0.025622705
-0.105632775 -0.011313211 -0.031225404 0.03162708 0.04629791 0.11445906 0.017944735 0.02149583
0.08512232 -0.011786377 -0.0008929417 -0.07615591 0.0751956 -0.07048747 -0.011169327 -0.11271604
0.022438573 0.009031532 0.021871312 0.11250945 -0.013597681 0.042303454 0.014573077 0.014588183
-0.0096384 0.0744258 0.054120738 0.07309718 -0.035072975 0.1587538 0.06033024 -0.057046913
0.03509473 -0.09693623 0.018677814 -0.120459266 0.0821663 0.029505331 -0.07784129 -0.010798754
0.028505908 -0.030108862 -0.15522313 0.027020175 -0.04591594 -0.012762916 -0.079114854 0.032703206
0.05059564 0.03383177 -0.014417305 0.005680938 0.021567883 -0.041211545 0.13807964 -0.055120084
0.041660335 0.0031381873 -0.02758547 -0.07764629 0.044622358 -0.05590221 -0.19951881 -0.01348197
0.09307136 -8.464868e-05 -0.10693893 -0.012450435 0.088434756 -0.17526758 0.049627233 0.08765919
-0.021871194 -0.017304813 0.083187915 -0.10696224 -0.06732169 0.032288253 -0.055972483 -0.06595848
0.027251765 -0.060821738 0.02661505 -0.015280736 0.0015858135 -0.05061559 0.040799428 -0.07696456
0.03606801 -0.019028919 0.024082884 0.012856489 0.05548355 -0.058035478 0.052001234 -0.06026497
00000000: 1904 13bc 2d5d 1bbd c81a a53d c0f1 363d
00000010: e5ed 86bb edca d6bd 3d04 73bd 2809 8d3d
00000020: e984 a83d e065 86bd 8840 fcbb b608 30bd
00000030: 755b e03d 2c13 17bd 7daa 9d3d 9d56 0ebe
00000040: 051c 953d 3eed 933b 4ac9 11bd 9c41 a2bd
00000050: 6bbf f73b d16a 18be 294c cf3d 4f35 ae3b
00000060: c7db 09bd be31 84bc f0bb efbd 83e5 0e3d
00000070: 75bc fbbd 15cd cb3d 65ac 16bd 9207 02bd
00000080: 401b 24bd d558 0abc ab05 10bd e242 80bc
00000090: 88e4 b13c 8506 1abd a926 8abd 0e3f 07bd
000000a0: f1f9 5c3c a985 30bd 723f bc3c 9097 aa3d
000000b0: 97f4 70bc 0724 b73d 78fd 153d 6c33 613d
000000c0: 7cfa 203d df06 c83c 10ac 1ebc 66ab 98bd
000000d0: 106f e83c f75a bebd 66ff 92bd d083 803d
000000e0: 6799 93bc 3f48 903c 0be8 92bc 6f36 e63c
000000f0: 9d7a 883d e39e b83d 3fa4 bbbc 17cf 2b3d
00000100: 3d4e e8bd 54f7 ad3c ec98 f6bc 40b5 acbc
00000110: fc3a 533d 8ee8 923d 95ca b9bd dc91 d9bb
00000120: b261 95bd be0e 89bc e4ea cbbc 24ac b73b
00000130: 685d 89bd 50dc 87bc 7031 05bd 26cf 82bc
00000140: 5dfa f8bc afcd fe3b 5aac c33c b39d 883d
00000150: 004d 8fbd 02b5 5ebd a6b7 a83d 5ade e83d
00000160: 9524 ab3c 8dff b23b 2699 eebb 9fad 56bd
00000170: bc64 b1bd ef6f 0e3b 6486 04bd 4575 853c
00000180: d215 783d 078c 08bd be6e a53c 493e e73d
00000190: c658 08bc cb7e 1d3e a4e2 ae3d 8fe6 48bd
000001a0: 88e8 313d 199d 223d 0c5a 1c3d 9ee8 e93d
000001b0: 5104 bd3c 7f1b 193d 9777 8f3c 9916 2e3e
000001c0: 60ce a1bc fbdd a63d 6d0c dfbd 2345 9cbd
000001d0: 7da6 c63c 4dcd ccbd 3755 2dbc fd7a 943d
000001e0: 48c1 1c3d 93bd e43d c6c3 0f3c 920e 45bd
000001f0: 9a85 dbbc b58b 01be 08f8 1a3d c220 1cbc
00000200: 3253 943c 48b1 08bc 2924 b8bd f994 98bd
00000210: fbfa 5c3c f93c a13c 2cba 623d 65dd 843c
00000220: c4be 633c 8a3c 36bc 3f0a 97bd 7f7d b33d
00000230: 857b 90bc 833e 12bc a46c d7bc f819 163e
00000240: c357 abbb 8f22 d4bb 074f d7bb 7038 74bc
00000250: b394 743d e44f 31bd 2c9f 1abc 3245 00be
00000260: 24b9 f4bd e135 8cbd 3f3d 22bd 0bc4 5dbd
00000270: 29dc 5b3c 25a1 b9bc 3244 e0bc b5e6 d1bc
00000280: ff55 d8bd 0c5b 39bc 6bcc ffbc 668b 013d
00000290: e1a2 3d3d 8369 ea3d d600 933c 0618 b03c
000002a0: 9c54 ae3d a61b 41bc 4e14 6aba a1f7 9bbd
000002b0: 2700 9a3d bc5b 90bd 8eff 36bc abd7 e6bd
000002c0: 19d1 b73c fef8 133c 772b b33c 5b6b e63d
000002d0: cfc8 5ebc 6346 2d3d eac3 6e3c 4603 6f3c
000002e0: 61ea 1dbc 8e6c 983d b5ad 5d3d f9b3 953d
000002f0: aea8 0fbd 5b90 223e d71c 773d 06aa 69bd
00000300: 7ebf 0f3d 8186 c6bd 3702 993c 59b3 f6bd
00000310: ce46 a83d 2ab5 f13c 416b 9fbd 42ed 30bc
00000320: 3985 e93c dca6 f6bc d0f2 1ebe 6a59 dd3c
00000330: 5a12 3cbd 8d1b 51bc f806 a2bd ccf3 053d
00000340: 603d 4f3d 2f93 0a3d 8f36 6cbc 2927 ba3b
00000350: 21af b03c 70cd 28bd c064 0d3e 99c5 61bd
00000360: 07a4 2a3d 0caa 4d3b ecfa e1bc 0505 9fbd
00000370: efc5 363d b7f9 64bd a94e 4cbe 7be3 5cbc
00000380: 329c be3d 6a85 b1b8 cc02 dbbd e9fc 4bbc
00000390: 481d b53d 5879 33be ed45 4b3d a986 b33d
000003a0: 382b b3bc d3c2 8dbc 6d5e aa3d 050f dbbd
000003b0: f4df 89bd b040 043d 6743 65bd 3d15 87bd
000003c0: 183f df3c 3720 79bd ce07 da3c 0d5c 7abc
000003d0: 12db cf3a 4b52 4fbd 4d1d 273d 989f 9dbd
000003e0: 0dbc 133d 89e2 9bbc 7849 c53c 06a4 523c
000003f0: b842 633d 9cb6 6dbd 3fff 543d 67d8 76bd

model/pi_fc1/MatMul_bias f4 [256]
0.008774489 0.0059198285 0.003846718 -0.0012896081 0.0066714874 0.008239757 0.0065651 -0.0011304937
-0.0026417866 0.0030126546 -0.010155818 -0.0049044113 0.00845619 0.005416028 0.0023501308 0.0007526797
0.006678591 0.0010860835 0.0019429857 0.0025204066 -0.0036020947 0.005968231 -0.0019898303 0.0033268863
0.001355702 -0.004183337 0.0072446694 0.0041169664 0.0104930615 -0.001012957 0.0012543357 -0.00017007654
0.0003445588 0.0008675781 -0.0055244546 -0.0050172145 -0.0026636065 -0.0031180242 0.0038469618 0.0045453454
0.008114736 0.0025503575 -0.013099005 -0.0028380216 -0.00443139 0.00025504403 0.0052652406 -0.005874407
0.013190405 -0.00044891058 -0.0004616123 0.005157566 -0.008664446 0.008574102 -0.005206162 7.2981646e-05
-0.010444244 -0.0075071612 -0.0070464592 -0.00069911376 0.0010782037 -0.009450106 0.0043399446 -0.00044175255
0.0065955794 0.010945008 0.0019026733 -0.004192853 -0.0013886497 -0.00077032816 -0.002101417 0.01001936
-0.0064047747 0.0040603015 0.0012034219 -0.0020293035 -0.001914861 0.003540647 0.008625089 -0.0020077992
0.0056092655 -0.0019625407 0.0119851045 -0.0028648435 0.004901622 -0.0044918642 -0.0032420869 0.009041196
-0.00429635 0.0039488333 -0.00034716947 6.622316e-05 0.0012793578 0.002150737 0.0042720498 -0.004941073
0.006089253 -0.002142547 0.005764121 0.003133349 0.0033305832 0.006102493 -0.014409381 0.004894602
-0.0028156086 -0.004589287 0.00014110819 0.004004076 8.810312e-05 -0.00046057746 -0.0032972011 0.0057353564
0.0077219293 -0.00019567247 -0.0006205746 0.003979742 -0.003949926 0.010187057 0.0021599217 0.0066814297
-0.010911471 0.0020598238 -0.0010300531 -0.0029824353 -0.012336644 0.0008660134 0.0010726647 -0.007917036
0.0014427131 0.007412233 0.00757907 0.008705826 0.0009985073 0.0052708215 -0.005281399 0.0011487755
0.0042200983 -0.0018316075 -0.0032772785 -0.0045593595 0.009151884 0.008101853 0.012215327 -0.0031266909
-0.0029090296 -0.0030294002 -0.005336026 -0.011859638 -0.0022052098 -0.006497169 -0.0031697077 0.01721825
-0.0037378117 0.007931501 -0.0032203237 0.012260483 -0.006722341 0.007897658 -0.0062104356 -0.0027751257
-0.004120025 -0.004516575 0.006838899 0.00054747885 0.010937778 0.0041206228 0.0062849913 0.005779262
-0.0056208316 0.0047485004 0.0032243326 0.005993551 -0.007610458 0.0055758916 0.0067641544 -0.004901191
-0.0005952783 0.0043060444 -0.0040280097 0.0033508516 -0.0035917517 0.013692938 0.01634016 0.0016451939
-0.0053171013 0.0018422626 -0.0033386624 0.0049797962 -0.0029739467 0.0050996826 -0.00058613514 -4.9301914e-05
0.0032457104 -0.0013575915 -0.0006950836 0.0085494695 0.008101122 0.0034222696 0.013369871 -0.0016603505
-0.0021152198 -0.005830834 0.013468484 -0.0011602122 -0.006164495 0.0059642843 -0.0036887827 -0.0024252697
0.004574579 0.0044035027 0.003933673 0.008186091 0.0011356676 9.7840406e-05 0.0028861812 -0.0017795293
-0.0022041663 0.0079136705 0.003826507 -0.004918188 0.011035658 0.0066762073 0.0007212711 -0.0005986203
-0.0015035042 -0.0067771617 -0.00066543446 0.005892434 0.015703842 -0.0037133698 0.010431876 -0.0019146056
-0.0024745425 0.005878164 -0.006253168 0.00096501486 0.0032519184 0.005787497 -0.0018743682 -0.009009265
0.013400586 0.008482663 -0.0033726564 -0.0045194943 -0.0013858929 0.0054700477 0.003533363 -0.0058205873
0.0026799052 0.0063055386 -0.0062020686 0.0052114455 0.008075884 0.0036365753 -0.00020202738 -0.012279876
00000000: e0c2 0f3c 1ffb c13b 3819 7c3b 1108 a9ba
00000010: 7e9c da3b 0c00 073c 0d20 d73b 132d 94ba
00000020: d321 2dbb f56f 453b 9764 26bc 2fb5 a0bb
00000030: d58b 0a3c f078 b13b a704 1a3b 7b4f 453a
00000040: 15d8 da3b ea5a 8e3a c8ab fe3a 682d 253b
00000050: 1f11 6cbb 2691 c33b d067 02bb e407 5a3b
00000060: d0b1 b13a 6014 89bb b164 ed3b 9ee7 863b
00000070: 17eb 2b3c 32c5 84ba 8668 a43a 9356 32b9
00000080: e6a5 b439 2e6e 633a 7c06 b5bb 7267 a4bb
00000090: e78f 2ebb c457 4cbb 4f1d 7c3b 1ff1 943b
000000a0: abf3 043c e623 273b 369d 56bc 1afe 39bb
000000b0: 3235 91bb 6eb7 8539 0a88 ac3b 197e c0bb
000000c0: 921c 583c c25b ebb9 8e04 f2b9 cd00 a93b
000000d0: 52f5 0dbc 647a 0c3c 7498 aabb b90d 9938
000000e0: 561e 2bbc a2fe f5bb fce5 e6bb bb44 37ba
000000f0: 8352 8d3a 9ed4 1abc 1836 8e3b 069b e7b9
00000100: bb1f d83b b152 333c 1f63 f93a 3364 89bb
00000110: 5a03 b6ba d9ef 49ba edb7 09bb 3e28 243c
00000120: 25df d1bb 470c 853b 23bc 9d3a 10fe 04bb
00000130: 13fc faba 330a 683b 3f50 0d3c 4895 03bb
00000140: eecd b73b f89d 00bb 2c5d 443c 19c0 3bbb
00000150: c99d a03b 7d30 93bb 3179 54bb 8621 143c
00000160: 65c8 8cbb 3765 813b 4c04 b6b9 4ae1 8a38
00000170: 20b0 a73a 61f3 0c3b 8dfc 8b3b b9e8 a1bb
00000180: 5b88 c73b f969 0cbb f4e0 bc3b df58 4d3b
00000190: ea45 5a3b 6cf7 c73b 5315 6cbc e662 a03b
000001a0: 1386 38bb bb61 96bb 71f6 1339 a034 833b
000001b0: 01c4 b838 a979 f1b9 db15 58bb a8ef bb3b
000001c0: 3d08 fd3b 6e2d 4db9 0eae 22ba 7f68 823b
000001d0: 616e 81bb 9de7 263c 798d 0d3b e5ef da3b
000001e0: 07c6 32bc 1cfe 063b d902 87ba f674 43bb
000001f0: a31f 4abc 2d05 633a a898 8c3a 75b6 01bc
00000200: 6b19 bd3a 51e2 f23b d959 f83b e1a2 0e3c
00000210: 58e0 823a dbb6 ac3b 960f adbb 8292 963a
00000220: c048 8a3b 8d12 f0ba 9cc7 56bb ae66 95bb
00000230: c9f1 153c a2bd 043c cb22 483c 2be9 4cbb
00000240: 6ba5 3ebb e788 46bb d5d9 aebb ed4e 42bc
00000250: 4885 10bb 34e6 d4bb dfba 4fbb 4a0d 8d3c
00000260: 13f6 74bb 20f3 013c 110c 53bb 31e0 483c
00000270: 1547 dcbb 2e65 013c e980 cbbb e2de 35bb
00000280: 4601 87bb c7ff 93bb d818 e03b af84 0f3a
00000290: 5e34 333c 4a06 873b 54f2 cd3b f75f bd3b
000002a0: f42e b8bb 4f99 9b3b 534f 533b 8d65 c43b
000002b0: 2661 f9bb f8b5 b63b d7a5 dd3b 2c9a a0bb
000002c0: 730c 1cba b819 8d3b 65fd 83bb f699 5b3b
000002d0: 9863 6bbb 5858 603c cddb 853c 8ca3 d73a
000002e0: 143b aebb 1378 f13a 76cd 5abb 8f2d a33b
000002f0: 8ce6 42bb 3d1b a73b dda6 19ba 87c9 4eb8
00000300: fcb5 543b 36f1 b1ba 4536 36ba 1313 0c3c
00000310: 92ba 043c 2848 603b 4e0d 5b3c 1ea0 d9ba
00000320: 809f 0abb 9510 bfbb ebaa 5c3c 4312 98ba
00000330: 88ff c9bb 0b70 c33b 81bf 71bb 46f1 1ebb
00000340: 5ae6 953b 424b 903b 0ae6 803b f41e 063c
00000350: aeda 943a ab2f cd38 1626 3d3b 183f e9ba
00000360: c673 10bb 57a8 013c 22c6 7a3b c028 a1bb
00000370: e8ce 343c 16c4 da3b af13 3d3a baec 1cba
00000380: 3b11 c5ba f412 debb 8d70 2eba 5215 c13b
00000390: 58a5 803c 025c 73bb 76ea 2a3c 81f3 faba
000003a0: ef2b 22bb 9d9d c03b 60e7 ccbb 0df9 7c3a
000003b0: 231e 553b 0ba5 bd3b 5cad f5ba 999b 13bc
000003c0: 228e 5b3c defa 0a3c c907 5dbb 4418 94bb
000003d0: d9a6 b5ba 163e b33b ff8f 673b a0ba bebb
000003e0: 59a1 2f3b b19e ce3b b93a cbbb c6c4 aa3b
000003f0: b650 043c 9c53 6e3b 50d7 53b9 8831 49bc

model/pi_fc1/w/transpose f4 [256, 512]
-0.04759899 -0.016213981 -0.018698817 -0.025214352 0.056337994 0.071471326 -0.037991263 -0.011199073
-0.049987704 -0.0004493145 0.03863723 -0.11864509 0.0037364732 0.11944996 -0.10189612 -0.022501273
0.054615583 0.05845543 0.027385276 -0.008153652 -0.05811371 0.025007935 0.01000963 0.10594535
-0.07807895 -0.033097506 -0.00882473 -0.058308635 0.051025342 -0.10648007 -0.15148905 0.038488366
0.07224027 0.0053016287 0.03139373 0.112839855 -0.03103109 -0.0004518421 0.039615273 0.107173465
-0.14515772 -0.11263452 -0.050062086 0.035238158 -0.11351246 -0.08036303 -0.097568996 0.04435594
-0.0021538436 -0.0047928207 -0.0014647275 -0.09358405 0.06273851 0.10157644 0.044979878 0.007178197
-0.067303136 0.13014227 -0.052340087 -0.022552291 -0.06887762 -0.044487886 0.13445543 0.055965677
0.04103077 -0.070445955 0.05702865 -0.08318988 -0.063026845 -0.023499945 0.07468293 -0.031396788
0.028283445 0.12210506 -0.029676815 0.017708683 0.026988018 0.059538957 0.018063294 -0.045296505
0.04511125 -0.112550646 -0.07572371 -0.043233056 0.032905817 -0.018273983 0.026134506 0.021939032
0.012925663 0.056165326 0.09223036 0.05079153 -0.019240096 -0.0388206 0.06918087 0.047161654
-0.013587192 0.037011176 -0.04989341 0.06395189 0.03544058 -0.02633894 0.08724652 -0.026159395
-0.061009582 0.017164262 -0.024864284 -0.17461216 0.15278308 -0.06059293 -0.063618995 0.05082072
0.035277843 0.0029571408 -0.083173424 0.03305754 -0.038633026 -0.019307718 -0.05392018 0.047829088
0.005082556 -0.07590858 -0.05976496 0.08543754 -0.090627424 0.038585313 0.08450446 0.044084854
-0.04137426 -0.028866705 0.02849905 0.008063332 0.010760314 0.0014040935 -0.044118926 -0.09372939
0.026114635 -0.03429118 0.027964108 0.09885511 -0.05341329 0.003639387 -0.022667818 0.09480156
0.046243157 -0.006083942 -0.029598024 0.01450789 -0.04176155 0.04680315 0.093053415 0.033733003
-0.0010995249 0.020050572 -0.007078355 0.015381403 0.15381679 0.053135294 -0.04196506 -0.03212976
0.08232107 0.12613474 0.02082736 -0.054548778 -0.001106119 0.035940614 -0.15068471 0.015751595
-0.021080147 -0.08457182 0.045131914 -0.07896223 0.12164336 -0.0072213663 0.011749922 0.03835341
0.04663257 0.041744392 0.07259683 0.007492347 -0.049995866 0.006447428 -0.07176197 0.029236747
0.0016365721 0.031549755 -0.00437786 -0.12145966 -0.04371285 -0.08918464 -0.02353496 0.05688748
-0.030567728 -0.00091218785 -0.030605424 -0.043148473 0.03333075 0.06301528 -0.031390265 -0.061000768
-0.06360787 0.013199545 -0.038300946 -0.055939786 0.017359281 0.0838078 0.052439194 -0.002001029
-0.03700239 0.077914774 -0.007958962 0.023817843 0.058120664 -0.05499916 -0.06451112 0.041804846
-0.006311797 0.13377573 0.06997446 0.019046571 0.023967851 -0.026725411 0.016465537 -0.07786556
0.061072916 -0.010391627 -0.07467019 -0.0625996 0.09914366 -0.054069698 0.044168983 0.036338076
-0.0218396 0.012256687 0.042128243 -0.07128576 0.06333797 0.024059942 0.0037869904 0.0023337847
0.016105877 -0.012112987 0.109179065 -0.06379605 0.0666725 -0.032887 -0.020565977 -0.010497869
0.048545588 0.07826965 -0.11172325 -0.053923782 -0.07048245 0.042590994 0.059423152 -0.048328746
00000000: 29f7 42bd 2fd3 84bc 432e 99bc 548e cebc
00000010: abc2 663d 8f5f 923d ba9c 1bbd 517c 37bc
00000020: e8bf 4cbd f991 ebb9 1242 1e3d 32fc f2bd
00000030: 9edf 743b 2ea2 f43d eaae d0bd 9754 b8bc
00000040: 97b4 5f3d f66e 6f3d 1657 e03c e596 05bc
00000050: a408 6ebd 71dd cc3c 6eff 233c e0f9 d83d
00000060: dbe7 9fbd 4091 07bd 9a95 10bc 09d5 6ebd
00000070: f3ff 503d 3912 dabd f21f 1bbe faa5 1d3d
00000080: b5f2 933d 49b9 ad3b b696 003d 9518 e73d
00000090: ea34 febc 38e5 ecb9 a043 223d c37d db3d
000000a0: 3aa4 14be edac e6bd e70d 4dbd e355 103d
000000b0: 3879 e8bd 5f95 a4bd 41d2 c7bd 93ae 353d
000000c0: 8027 0dbb 180d 9dbb 19fc bfba ffa8 bfbd
000000d0: 0c7d 803d 4f07 d03d d23c 383d 1537 eb3b
000000e0: 3ad6 89bd 0444 053e 8f62 56bd 95bf b8bc
000000f0: b60f 8dbd ee38 36bd afae 093e 443c 653d
00000100: e10f 283d f845 90bd e096 693d 755f aabd
00000110: 3814 81bd f582 c0bc 5df3 983d eb99 00bd
00000120: afb2 e73c 3812 fa3d cb1c f3bc cd11 913c
00000130: fa15 dd3c 1fdf 733d 79f9 933c d488 39bd
00000140: 93c6 383d f480 e6bd 0815 9bbd 2515 31bd
00000150: 40c8 063d 52b3 95bc 0818 d63c 7cb9 b33c
00000160: 29c6 533c 9d0d 663d 45e3 bc3d c80a 503d
00000170: 689d 9dbc 5902 1fbd b3ae 8d3d 942c 413d
00000180: d09c 5ebc 0899 173d 085d 4cbd 35f9 823d
00000190: 242a 113d c3c4 d7bc 4eae b23d 3a4c d6bc
000001a0: 2fe5 79bd 119c 8c3c 2fb0 cbbc 88cd 32be
000001b0: 2b73 1c3e 4b30 78bd ad4a 82bd 6329 503d
000001c0: 807f 103d 97cc 413b d456 aabd 5867 073d
000001d0: aa3d 1ebd 382b 9ebc 68db 5cbd 6fe8 433d
000001e0: 928b a63b f575 9bbd 1acc 74bd e1f9 ae3d
000001f0: df9a b9bd a20b 1e3d ad10 ad3d 5292 343d
00000200: 0e78 29bd de79 ecbc d776 e93c 111c 043c
00000210: 074c 303c 8f09 b83a 0cb6 34bd 32f5 bfbd
00000220: 5cee d53c e974 0cbd fc14 e53c 8c74 ca3d
00000230: e5c7 5abd c882 6e3b dcb1 b9bc 5227 c23d
00000240: 7769 3d3d ce5b c7bb 8e77 f2bc 80b2 6d3c
00000250: 290e 2bbd a9b4 3f3d ca92 be3d 9e2b 0a3d
00000260: ef1d 90ba 1941 a43c 8cf1 e7bb 4802 7c3c
00000270: 2682 1d3e 65a4 593d 8ee3 2bbd 7f9a 03bd
00000280: f397 a83d 7729 013e 249e aa3c 8a6e 5fbd
00000290: 32fb 90ba 7736 133d 184d 1abe 7d09 813c
000002a0: 46b0 acbc fe33 adbd 3edc 383d f3b6 a1bd
000002b0: 2720 f93d 36a1 ecbb bf82 403c 7718 1d3d
000002c0: cb01 3f3d 2bfc 2a3d a6ad 943d 5d82 f53b
000002d0: 77c8 4cbd f244 d33b f1f7 92bd e781 ef3c
000002e0: 3f82 d63a 513a 013d 2774 8fbb d8bf f8bd
000002f0: 3f0c 33bd 70a6 b6bd 63cc c0bc d902 693d
00000300: 2c69 fabc e41f 6fba 3ab8 fabc 74bc 30bd
00000310: d385 083d 280e 813d 1493 00bd f1db 79bd
00000320: d844 82bd e842 583c 74e1 1cbd 1e21 65bd
00000330: 0d35 8e3c 6da3 ab3d 7bca 563d b223 03bb
00000340: d18f 17bd c891 9f3d 4e66 02bc a31d c33c
00000350: ef0f 6e3d cd46 61bd 681e 84bd 8f3b 2b3d
00000360: 31d3 cebb 81fc 083e c54e 8f3d 8e07 9c3c
00000370: 3a58 c43c 40ef dabc bce2 863c fb77 9fbd
00000380: 9827 7a3d a541 2abc afec 98bd 3834 80bd
00000390: d50b cb3d 3078 5dbd 89ea 343d 3cd7 143d
000003a0: f6e8 b2bc 45d0 483c aa8e 2c3d 45fe 91bd
000003b0: 56b7 813d 5b19 c53c 282f 783b 69f2 183b
000003c0: 79f0 833c 8d75 46bc 4699 df3d 81a7 82bd
000003d0: 978b 883d 85b4 06bd fb79 a8bc 41ff 2bbc
000003e0: bdd7 463d d74b a03d 29cf e4bd 2fdf 5cbd
000003f0: 1a59 90bd e573 2e3d b165 733d 5df4 45bd
