bittle_controller/output/all_model13/bittle_frozen_model13.tflite (tflite, 623772 bytes, 7 tensors)

model/add f4 [1, 8]
-2.0794415 -2.0794415 -2.0794415 -2.0794415 -2.0794415 -2.0794415 -2.0794415 -2.0794415
00000000: 9215 05c0 9215 05c0 9215 05c0 9215 05c0
00000010: 9215 05c0 9215 05c0 9215 05c0 9215 05c0

model/pi/MatMul_bias f4 [8]
-0.0085535385 2.5100644e-05 -0.013864726 0.0051959427 -0.0016663262 0.005523809 -0.0038518345 0.0045595136
00000000: 2424 0cbc 398f d237 e028 63bc ba42 aa3b
00000010: a168 daba 1201 b53b 0f6f 7cbb f967 953b

model/pi/w/transpose f4 [8, 256]
-0.12987287 -0.034655455 -0.044622235 -0.13895224 0.019770565 -0.14903672 0.029120015 0.003663743
-0.04162002 0.08995183 -0.10645699 0.02999251 -0.03183236 -0.0050074155 -0.08520473 0.031898774
-0.04985227 -0.011357463 0.018677354 0.0026456525 -0.039363578 -0.034701925 -0.047639865 0.06480664
0.080122255 -0.04897675 0.054221984 -0.020861648 0.025290938 -0.009835167 -0.069538094 0.05246708
-0.09392762 0.0022193305 -0.0072041424 -0.019099202 0.031431172 0.017747657 -0.071944945 -0.11257058
-0.07963939 -0.0021562905 0.05934183 -0.029106218 0.027245205 -0.0030980553 0.033621095 -0.033444583
-0.05755343 -0.020561717 0.13223208 0.013559152 -0.09502067 -0.033325527 -0.03908185 -0.009526887
0.07894241 0.08331317 -0.1254774 0.06045736 -0.03425287 0.13500828 0.051092893 0.058430735
-0.05590546 -0.056754205 -0.065492086 -0.10138702 -0.023898825 -0.05819656 0.06546799 -0.050219808
0.041812375 -0.010022577 -0.033928208 -0.063378595 0.00020903444 -0.002955988 -0.04923274 -0.027959146
0.14758624 0.03401623 -0.071958326 -0.010860129 0.028481105 -0.062522545 -0.011886289 0.05965163
-0.023952872 0.007975971 0.04025718 -0.058619797 -0.04514792 -0.05071079 -0.10868355 0.03505277
0.04521116 -0.06815479 -0.06144475 0.05936231 -0.04962815 0.11089145 -0.046712764 -0.111325115
0.011929149 0.0058875945 0.006867346 -0.038786966 0.05254845 -0.05678079 -0.012197625 -0.0061721522
-0.10512472 0.06236088 0.1333488 0.0027903817 -0.006280919 0.04298575 0.075646535 0.00471104
-0.1482994 -0.056609277 0.040540576 0.07108615 0.02315708 -0.12048554 -0.03732639 0.14178483
0.025215328 -0.0029193407 0.06927811 -0.08969607 0.05306235 -0.004079517 0.031600975 0.06678182
0.021039952 -0.024211762 -0.07008672 -0.0643394 0.06022807 -0.0063694986 -0.045756135 0.114383705
0.0705663 0.030003466 0.13411413 -0.008491108 0.018472616 -0.01628926 -0.08032662 -0.016849728
-0.051710825 -0.0046584704 -0.13625336 -0.09614066 0.043136016 0.069306105 0.00630163 0.07485371
0.031841908 -0.038773857 -0.08996489 0.08225894 0.080504924 0.0017182357 0.05850847 -0.0012042704
0.014314609 -0.005686744 -0.0006506855 -0.07732456 -0.05519382 0.017486969 -0.03222506 0.029106952
0.0701642 -0.054659687 0.08283296 -0.060526226 0.0054484922 0.08261119 -0.049452066 0.04542438
-0.05202564 -0.003090935 -0.017778846 -0.042750757 -0.15021966 0.03653439 0.08542289 -0.008923794
-0.06279633 -0.16023104 -0.011737141 0.031169618 -0.12452216 -0.0987336 0.14567634 0.022942612
-0.094634734 -0.16709447 0.04107429 -0.10790191 0.021507008 0.08353613 0.0722999 -0.039190512
-0.15298004 0.12110428 -0.11111914 0.053010054 0.058926243 0.044544186 0.0014008341 -0.028471036
0.02502747 -0.084903255 0.07749991 0.038302768 -0.09740555 -0.046866752 -0.08101144 0.06620453
-0.05310082 0.053696062 -0.06490752 0.050492678 0.057809554 -0.016723601 -0.11079922 0.0419706
-0.10118876 -0.069023654 0.022386586 0.041442383 -0.017574409 0.03721246 -0.05951984 0.0651114
-0.0710105 -0.017967226 0.03272101 0.033242997 -0.05297716 0.019454546 0.032998513 0.06994582
-0.07254703 0.107617624 0.120860346 0.018432695 -0.011327728 -0.026962597 -0.07903043 -0.15664174
00000000: 65fd 04be e1f2 0dbd cec5 36bd 7f49 0ebe
00000010: e1f5 a13c 159d 18be 198d ee3c 681b 703b
00000020: c179 2abd aa38 b83d 1f06 dabd dab2 f53c
00000030: a662 02bd 3f15 a4bb d17f aebd 4aa8 023d
00000040: e531 4cbd a714 3abc 4001 993c af62 2d3b
00000050: b43b 21bd 9b23 0ebd 0522 43bd 58b9 843d
00000060: 2317 a43d d89b 48bd df17 5e3d 0ce6 aabc
00000070: f12e cf3c ae23 21bc fd69 8ebd b9e7 563d
00000080: 205d c0bd 3072 113b ba10 ecbb ee75 9cbc
00000090: f9bd 003d 8963 913c df57 93bd 678b e6bd
000000a0: fa19 a3bd 8d50 0dbb 6b10 733d 2a70 eebc
000000b0: 5631 df3c be08 4bbb 46b6 093d 30fd 08bd
000000c0: 25bd 6bbd 0c71 a8bc d967 073e 3527 5e3c
000000d0: 329a c2bd 5980 08bd 4a14 20bd a916 1cbc
000000e0: 8fac a13d 18a0 aa3d 267d 00be 23a2 773d
000000f0: bd4c 0cbd 9c3f 0a3e c846 513d 1155 6f3d
00000100: 20fd 64bd 1977 68bd b720 86bd ffa3 cfbd
00000110: 78c7 c3bc 845f 6ebd 1514 863d 49b3 4dbd
00000120: 7443 2b3d bc35 24bc 4ef8 0abd a3cc 81bd
00000130: 4130 5b39 40b9 41bb 45a8 49bd 940a e5bc
00000140: d920 173e 9a54 0b3d e35e 93bd afee 31bc
00000150: 3551 e93c d20b 80bd b6be 42bc 4555 743d
00000160: d038 c4bc a6ad 023c b6e4 243d 501b 70bd
00000170: 06ed 38bd 1eb6 4fbd 7b95 debd 7e93 0f3d
00000180: 562f 393d bd94 8bbd 7dad 7bbd e525 733d
00000190: e346 4bbd 0e1b e33d e255 3fbd 6cfe e3bd
000001a0: 7a72 433c b9ec c03b 7907 e13b 15df 1ebd
000001b0: 0b3d 573d f992 68bd 8cd8 47bc c43f cabb
000001c0: a14b d7bd 1f6e 7f3d 968c 083e d6de 363b
000001d0: 2bd0 cdbb d311 303d 92ec 9a3d 115f 9a3b
000001e0: ccdb 17be 21df 67bd e00d 263d 9e95 913d
000001f0: ebb3 bd3c 1fc1 f6bd 8fe3 18bd 0b30 113e
00000200: 6090 ce3c 6952 3fbb afe1 8d3d 93b2 b7bd
00000210: e857 593d 78ad 85bb 0670 013d e8c4 883d
00000220: fa5b ac3c bf57 c6bc a089 8fbd 60c4 83bd
00000230: b5b1 763d 3ab7 d0bb c96a 3bbd 0142 ea3d
00000240: 1085 903d d4c9 f53c 3755 093e 4a1e 0bbc
00000250: e253 973c 0e71 85bc 4882 a4bd 7108 8abc
00000260: bbce 53bd 15a6 98bb 0086 0bbe 65e5 c4bd
00000270: 64af 303d 5cf0 8d3d e77d ce3b e74c 993d
00000280: a96c 023d 56d1 1ebd 833f b8bd 6077 a83d
00000290: c4df a43d 6c36 e13a 94a6 6f3d 9cd8 9dba
000002a0: d287 6a3c de57 babb c492 2aba 575c 9ebd
000002b0: ea12 62bd d540 8f3c 6dfe 03bd b471 ee3c
000002c0: 40b2 8f3d d6e2 5fbd 54a4 a93d 59ea 77bd
000002d0: 4489 b23b 0e30 a93d 408e 4abd ea0e 3a3d
000002e0: d618 55bd 4991 4abb f1a4 91bc 6b1b 2fbd
000002f0: 2fd3 19be 16a5 153d 32f2 ae3d 1b35 12bc
00000300: 5d9b 80bd 9b13 24be 234d 40bc 6d57 ff3c
00000310: 7905 ffbd d734 cabd 2e2c 153e 25f2 bb3c
00000320: dbcf c1bd d01a 2bbe 843d 283d adfb dcbd
00000330: 772f b03c fe14 ab3d f811 943d 3b86 20bd
00000340: cda6 1cbe 8505 f83d 6f92 e3bd 1221 593d
00000350: a55c 713d f773 363d 319c b73a 173c e9bc
00000360: 6906 cd3c c2e1 adbd 46b8 9e3d 5de3 1c3d
00000370: 907c c7bd 5af7 3fbd 53e9 a5bd 3e96 873d
00000380: 3f80 59bd 67f0 5b3d 3cee 84bd 69d1 4e3d
00000390: b6c9 6c3d efff 88bc b4ea e2bd 5de9 2b3d
000003a0: 0d3c cfbd 465c 8dbd 1364 b73c 7dbf 293d
000003b0: 35f8 8fbc 186c 183d 13cb 73bd 2059 853d
000003c0: f46d 91bd 0130 93bc 7706 063d cf29 083d
000003d0: 94fe 58bd 245f 9f3c 7329 073d c13f 8f3d
000003e0: 8a93 94bd a166 dc3d a185 f73d 2a00 973c
000003f0: ef97 39bc aae0 dcbc b5da a1bd b166 20be

model/pi_fc0/MatMul_bias f4 [512]
0.019957492 0.0038144013 0.0036981974 0.022637133 0.0062034023 0.0035118985 -0.0021212767 0.02360786
0.011044743 0.027003251 0.007070855 -0.01127138 0.0028573484 0.019414121 -0.01077866 0.007860146
0.0042192414 -0.005099944 0.004060812 0.022354156 0.0007698957 0.019125303 0.0005631926 0.009818949
0.008537911 -0.0042194026 0.0016182052 0.0016017767 0.0031639228 0.019133382 0.008578534 0.0013718719
0.012571519 0.0007806963 0.018622734 0.019719722 0.016645268 0.008929771 0.0058032135 -0.006245061
-0.006359236 0.016769204 -0.0091618365 0.015395815 0.0022057372 -0.0020868413 0.0056801867 0.015743304
0.007609973 0.009058234 -0.00059194246 -0.0072050095 0.017960142 0.0006566198 0.023084763 -0.0031423804
0.009610187 0.026736338 0.0076543386 0.015161192 -0.004967998 0.003719572 0.009575729 -0.0019494017
0.003193159 -0.0019762535 0.010285696 -0.0010667718 0.020239357 0.02454311 0.025596576 -0.003350597
0.0063362303 -0.0014587065 -0.009798119 0.013555377 0.004131835 0.012079921 0.010337565 -0.0043859365
0.0036119004 -0.0037476723 0.022303782 0.016915351 0.007916107 -0.013084948 -0.0029767815 0.03200577
-0.0034663456 -0.0082236845 -0.0027694693 0.00938578 0.0052030897 -0.006916509 0.018775862 0.0018620163
-0.0032241377 -0.0025748713 0.0394658 0.033018958 -0.0008927367 -0.0044578654 0.027393613 0.0019963442
0.009760995 -0.00040467957 0.0071279122 0.0044429097 -0.005781949 0.031535167 -0.004982512 -0.0051140147
0.010062166 -0.0043260716 -0.006880386 0.00097058713 0.01661842 -0.0033637967 0.0027196195 0.00021464413
-0.0028541617 -0.008979062 0.0048127603 0.033642933 0.006486648 0.0070585446 -0.00011467034 0.00061237375
-0.0029226216 -0.001137429 -0.0062474576 -0.012836322 0.0021564905 0.017180834 0.005228838 -0.009786796
0.02246222 0.012276224 0.021311829 -0.002099414 0.004345291 -0.00731822 0.016224388 0.026576482
0.0042657196 0.006167202 0.006519045 0.020677349 -0.0013481242 -0.0096706655 -0.00025107304 -0.0022044273
0.015867723 -0.0022551634 0.030103125 0.00093227875 0.0042139003 -0.0031677685 -0.0025971658 0.034157358
-0.002550294 0.030236864 0.02392072 -0.0057937703 -0.0015168216 -0.0010069037 0.00075673725 0.035212003
-0.0041163433 -0.004180928 0.009520414 0.022820832 0.0029227848 0.018651819 0.012126185 0.002368652
-0.0031375636 0.010272395 0.0045861835 0.0008244731 -0.002581384 0.0074210567 -0.014211861 0.003249865
0.01465979 -0.0042226543 -0.0012486972 0.0059931925 0.032996055 -0.005699154 -0.0010154634 0.0034659659
-0.007492042 -0.013037881 0.0046747173 0.0017929915 0.023740398 0.01927769 -0.009073477 0.005057116
0.0011085485 0.008594404 0.012278196 0.013691795 0.02695147 0.0012679108 0.0077234167 -0.0011533769
0.0019173077 0.0027379282 -0.00637846 0.013537012 0.007164392 -0.011223871 0.004962352 0.026711136
0.0051192082 0.0213671 0.0066991705 -0.0046966136 0.007226122 0.009955058 0.0025166925 -0.0022334703
0.02914239 -0.0034784642 -0.0032059427 0.0073062964 -0.0020351158 0.022759952 -0.0019868147 0.005612792
0.01755161 0.0013569277 0.019723346 -0.0014765803 0.0012750664 0.023873646 0.00021490906 0.00043607026
0.00789751 -0.0004240999 -0.0055008875 -0.0006535868 0.010919473 0.005929555 -0.008730915 -0.0092949085
0.021877881 0.01654185 -0.0037214977 0.00018117695 0.041568637 0.022457138 0.01663568 -0.0024251011
00000000: e57d a33c 09fb 793b 755d 723b 8271 b93c
00000010: e945 cb3b e127 663b 1e05 0bbb 4565 c13c
00000020: 02f5 343c ec35 dd3c a1b2 e73b 98ab 38bc
00000030: 5a42 3b3b 5d0a 9f3c fa98 30bc d8c7 003c
00000040: 9041 8a3b 6e1d a7bb 8f10 853b 1020 b73c
00000050: d3d2 493a abac 9c3c 37a3 133a a8df 203c
00000060: 98e2 0b3c ea42 8abb f519 d43a b5f2 d13a
00000070: d159 4f3b 9cbd 9c3c fb8c 0c3c 62d0 b33a
00000080: c6f8 4d3c a4a7 4c3a b48e 983c 418b a13c
00000090: a85b 883c 2d4e 123c e228 be3b 5ea3 ccbb
000000a0: 2361 d0bb 925f 893c 871b 16bc ba3e 7c3c
000000b0: 218e 103b 63c3 08bb dc20 ba3b 1af8 803c
000000c0: 155d f93b fd68 143c 962c 1bba 0018 ecbb
000000d0: 2621 933c 0221 2c3a 421c bd3c 65f0 4dbb
000000e0: 0c74 1d3c 2a06 db3c 3fd1 fa3b a666 783c
000000f0: 96ca a2bb 10c4 733b 85e3 1c3c 1183 ffba
00000100: 5144 513b 0884 01bb 5685 283c ecd2 8bba
00000110: 02cd a53c a20e c93c e9af d13c b195 5bbb
00000120: 27a0 cf3b 1132 bfba 4a88 20bc 5f17 5e3c
00000130: 5864 873b dcea 453c e45e 293c e7b7 8fbb
00000140: a2b5 6c3b 829b 75bb 6cb6 b63c 1092 8a3c
00000150: 8fb2 013c 4062 56bc 1b16 43bb 7b18 033d
00000160: a12b 63bb a2bc 06bc fc7f 35bb d1c6 193c
00000170: ae7e aa3b e2a3 e2bb d6cf 993c e60e f43a
00000180: 0e4c 53bb 2cbf 28bb e4a6 213d e33e 073d
00000190: 8c06 6aba 4913 92bb 9268 e03c 19d5 023b
000001a0: 95ec 1f3c 2c2b d4b9 4391 e93b d495 913b
000001b0: 8176 bdbb 052b 013d 5744 a3bb 7793 a7bb
000001c0: c8db 243c b8c1 8dbb dc74 e1bb 006f 7e3a
000001d0: 5a23 883c 2573 5cbb a53b 323b 1812 6139
000001e0: e30c 3bbb ea1c 13bc 5cb4 9d3b 2ccd 093d
000001f0: f38d d43b 5d4b e73b 2c7b f0b8 b587 203a
00000200: 7489 3fbb c915 95ba 79b7 ccbb 704f 52bc
00000210: e853 0d3b d2be 8c3c ac56 ab3b cc58 20bc
00000220: b102 b83c 3722 493c 2596 ae3c 5296 09bb
00000230: f162 8e3b aecd efbb 02e9 843c ecb6 d93c
00000240: 73c7 8b3b 3d16 ca3b b79d d53b 8b63 a93c
00000250: 8bb3 b0ba b671 1ebc 74a2 83b9 2778 10bb
00000260: 07fd 813c 5dcb 13bb d49a f63c 2b64 743a
00000270: c214 8a3b 569a 4fbb 3635 2abb 96e8 0b3d
00000280: d522 27bb 4db3 f73c 63f5 c33c abd9 bdbb
00000290: 16d0 c6ba 15fa 83ba c75f 463a 763a 103d
000002a0: 64e2 86bb 2b00 89bb 83fb 1b3c c1f2 ba3c
000002b0: 318c 3f3b b3cb 983c e8ac 463c 633b 1b3b
000002c0: 959f 4dbb 8c4d 283c b247 963b 7421 583a
000002d0: 702c 29bb 562c f33b ded8 68bc b0fb 543b
000002e0: 9e2f 703c 315e 8abb 53ab a3ba 8b62 c43b
000002f0: df26 073d f8bf babb 4c19 85ba 4225 633b
00000300: ce7f f5bb d69c 55bc 5f2e 993b d002 eb3a
00000310: 397b c23c 3fec 9d3c eca8 14bc 2ab6 a53b
00000320: b74c 913a 8bcf 0c3c 7d2a 493c 8d53 603c
00000330: 54c9 dc3c 0730 a63a b714 fd3b e82c 97ba
00000340: 2c4e fb3a d06e 333b 6702 d1bb 58ca 5d3c
00000350: 47c3 ea3b 54e4 37bc 3a9b a23b 50d1 da3c
00000360: 08bf a73b 0e0a af3c b784 db3b 0de6 99bb
00000370: 1bc9 ec3b 8a1a 233c 18ef 243b 6a5f 12bb
00000380: 05bc ee3c f2f6 63bb cb1a 52bb a869 ef3b
00000390: 945f 05bb 1473 ba3c 3835 02bb 83eb b73b
000003a0: 65c8 8f3c f0da b13a db92 a13c d089 c1ba
000003b0: 2120 a73a aa92 c33c 3659 6139 5ca0 e439
000003c0: 8f64 013c ba59 deb9 ca40 b4bb 7855 2bba
000003d0: 97e7 323c b64c c23b 1d0c 0fbc ac49 18bc
000003e0: 3e39 b33c c682 873c 5fe4 73bb 51fa 3d39
000003f0: e043 2a3d 08f8 b73c 8d47 883c 72ee 1ebb

model/pi_fc0/w/transpose f4 [512, 42]
-0.022613615 0.02059573 0.101567395 -0.013532831 -0.13129562 -0.049914878 -0.012112519 0.022489887
-0.11178874 -0.09339037 0.057532363 0.040432096 0.051119085 0.038178153 -0.10909526 0.045949128
-0.1131789 -0.019373765 -0.03376451 0.011684797 -0.032654434 0.055007573 0.046575006 0.12559047
-0.074277066 -0.0630968 0.0077595226 0.07330823 -0.007889829 0.026153775 0.14530551 -0.060143497
-0.0027649915 0.033481643 -0.049409833 -0.04359944 0.097853646 0.04784215 -0.079753 -0.039670866
-0.0030047884 -0.038072247 0.030087123 0.030469796 -0.037387665 0.014135116 0.08751959 -0.029586451
0.051124882 0.06712383 -0.014825744 -0.08497646 -0.033626877 0.004700918 0.09106049 -0.0690778
0.012966212 0.0711119 0.07054079 -0.02852549 0.1368775 -0.0022377062 0.08024963 0.0516005
0.13088469 -0.09334399 -0.06563942 -0.12320534 -0.06253553 0.025895914 -0.030922113 -0.07384142
0.071453385 0.03701682 -0.0076804333 0.050540745 -0.002429076 -0.01774849 -0.011196556 0.11427307
-0.028347537 -0.01931928 0.08605539 0.011873304 -0.059735246 0.039871495 -0.08847965 0.00041864437
0.05797033 -0.08584902 0.0643771 0.075170286 -0.024384016 0.10794447 -0.006295494 -0.01641368
0.08784659 -0.035499338 -0.053051844 -0.10521365 -0.05130343 -0.056275073 0.06362723 -0.059721462
0.10961728 -0.050078906 -0.039523367 -0.006819539 -0.057509977 -0.049791463 0.025479717 -0.08296336
-0.029771434 -0.07861796 -0.032525003 0.07579099 0.00048095794 -0.08633017 -0.02324249 0.08958117
-0.052121256 -0.029534835 0.09258915 -0.008232064 0.05994038 0.08753878 -0.07574721 0.04616472
-0.048613053 0.040642537 0.03897039 -0.017694158 0.036701065 0.10985586 0.031960912 -0.103763744
0.07275587 0.046551842 -0.031996645 -0.052379824 0.0475016 -0.013883538 -0.08562273 0.0407769
-0.06203969 0.09833487 -0.04674498 0.07231538 0.06036655 -0.033431333 0.025529597 -0.037115615
0.09904239 -0.027885264 -0.000101594705 0.005408166 -0.03883989 0.09068757 -0.0330953 -0.17150761
0.032044396 -0.07711007 0.0723726 -0.14031063 -0.09881866 -0.033181835 -0.037100326 0.034140434
0.052402947 0.1289037 -0.013123002 0.029197132 -0.035909023 0.06870102 0.017684726 -0.030750457
0.033119056 -0.010688179 -0.08653386 -0.036920004 0.04854124 -0.0095604425 -0.13194644 0.06850392
-0.096459106 -0.07312979 -0.068954095 -0.04648061 0.007174917 0.07830847 -0.061143823 -0.057901036
0.01578112 0.020416832 0.09871549 -0.060672354 -0.04392534 0.022308795 0.09451423 0.05295591
-0.07583737 -0.052303117 -0.12038138 -0.044468082 0.033141695 -0.027389655 0.046021793 0.029507382
0.085934706 -0.034695435 -0.037889645 -0.05673688 -0.0903094 -0.022046445 0.016635772 -0.040504128
-0.050045297 0.070272006 -0.052665457 0.016553892 0.0143418955 0.061080404 -0.10562758 0.029558409
0.0550051 -0.08223002 -0.012279689 0.029391222 -0.011674587 -0.056412235 -0.029099355 -0.020785516
-0.03506818 -0.05698457 0.09368122 0.03962642 0.011422936 -0.051702254 0.05325707 0.09963639
-0.007528658 0.03199897 -0.11296555 -0.008780919 0.038144868 0.012713716 0.068926215 0.03418781
0.13956678 0.04469143 0.030565528 0.028187158 0.036657922 -0.036714192 0.008849425 0.030436095
00000000: 3040 b9bc 60b8 a83c 9102 d03d cfb8 5dbc
00000010: 5c72 06be 8b73 4cbd 9673 46bc b63c b83c
00000020: 7ff1 e4bd 7343 bfbd 0ea7 6b3d 209c 253d
00000030: 3f62 513d b260 1c3d 566d dfbd 2735 3c3d
00000040: 57ca e7bd bbb5 9ebc a84c 0abd 9771 3f3c
00000050: a8c0 05bd 9f4f 613d 6fc5 3e3d ca9a 003e
00000060: 931e 98bd e538 81bd 9843 fe3b a022 963d
00000070: 5744 01bc 7140 d63c f8ca 143e 0759 76bd
00000080: dc34 35bb 0c24 093d f761 4abd 5495 32bd
00000090: 7e67 c83d 21f6 433d 8a55 a3bd eb7d 22bd
000000a0: fceb 44bb a5f1 1bbd 4579 f63c cb9b f93c
000000b0: cf23 19bd f996 673c 793d b33d 495f f2bc
000000c0: 5368 513d 3878 893d ade7 72bc 2308 aebd
000000d0: 56bc 09bd 290a 9a3b ec7d ba3d a978 8dbd
000000e0: 3c70 543c 1ea3 913d b177 903d 4aae e9bc
000000f0: 9e29 0c3e 7ba6 12bb eb59 a43d 0c5b 533d
00000100: a306 063e 222b bfbd f66d 86bd 1553 fcbd
00000110: a112 80bd ab23 d43c 5f50 fdbc 2c3a 97bd
00000120: 2756 923d f39e 173d 25ac fbbb d003 4f3d
00000130: 2231 1fbb 4865 91bc c271 37bc 0008 ea3d
00000140: 1839 e8bc 7743 9ebc cf3d b03d 3f88 423c
00000150: f2ac 74bd 4b50 233d d234 b5bd 7f7d db39
00000160: 4c72 6d3d 9cd1 afbd 24d8 833d e1f2 993d
00000170: fdc0 c7bc fe11 dd3d 6e4a cebb fb75 86bc
00000180: eae8 b33d c167 11bd e44c 59bd 417a d7bd
00000190: 8c23 52bd b180 66bd fe4e 823d 7e9e 74bd
000001a0: 067f e03d 8a1f 4dbd 41e3 21bd 7076 dfbb
000001b0: 958f 6bbd 22f2 4bbd d7ba d03c b2e8 a9bd
000001c0: 39e3 f3bc 7402 a1bd f038 05bd 4e38 9b3d
000001d0: 1529 fc39 dfcd b0bd 0967 bebc 5576 b73d
000001e0: 197d 55bd 0af3 f1bc 619f bd3d c7df 06bc
000001f0: 0b84 753d 8847 b33d 5a21 9bbd 3817 3d3d
00000200: 7b1e 47bd ca78 263d 6a9f 1f3d 57f3 90bc
00000210: db53 163d 1cfc e03d 72e9 023d 1682 d4bd
00000220: 0801 953d 25ad 3e3d ea0e 03bd 3a8c 56bd
00000230: 0a91 423d c777 63bc f85a afbd ae05 273d
00000240: 541d 7ebd cb63 c93d aa77 3fbd 161a 943d
00000250: ea42 773d 4bef 08bd 7223 d13c 8b06 18bd
00000260: bdd6 ca3d a36f e4bc 3e0f d5b8 fc36 b13b
00000270: 9416 1fbd 68ba b93d f08e 07bd b19f 2fbe
00000280: fc40 033d e2eb 9dbd 1638 943d 97ad 0fbe
00000290: 7061 cabd ade9 07bd 83f6 17bd d7d6 0b3d
000002a0: 79a4 563d 55ff 033e dc01 57bc d32e ef3c
000002b0: 5715 13bd 1fb3 8c3d 8fdf 903c 62e8 fbbc
000002c0: d9a7 073d 791d 2fbc aa38 b1bd 6e39 17bd
000002d0: 2ed3 463d 67a3 1cbc f81c 07be c94b 8c3d
000002e0: 5a8c c5bd 12c5 95bd ce37 8dbd 7462 3ebd
000002f0: 911b eb3b 3160 a03d f271 7abd a329 6dbd
00000300: 6847 813c 3341 a73c 592b ca3d 9383 78bd
00000310: 0feb 33bd efc0 b63c ad90 c13d 4ce8 583d
00000320: 9f50 9bbd cb3b 56bd 838a f6bd 2a24 36bd
00000330: 96bf 073d 4560 e0bc 5981 3c3d 77b9 f13c
00000340: 89fe af3d cd1c 0ebd 2c32 1bbd ee64 68bd
00000350: 22f4 b8bd bf9a b4bc be47 883c a8e7 25bd
00000360: 4cfc 4cbd c5ea 8f3d bcb7 57bd 079c 873c
00000370: 45fa 6a3c 722f 7a3d 4653 d8bd 7a24 f23c
00000380: 074d 613d 3668 a8bd c030 49bc dcc5 f03c
00000390: c446 3fbc 8410 67bd c561 eebc 6346 aabc
000003a0: a7a3 0fbd a768 69bd f1db bf3d 504f 223d
000003b0: 4427 3b3c bec5 53bd 1624 5a3d 2a0e cc3d
000003c0: f6b2 f6bb 5a11 033d 7b5a e7bd d8dd 0fbc
000003d0: cb3d 1c3d 314d 503c 3029 8d3d 8408 0c3d
000003e0: 98ea 0e3e 5c0e 373d 8f64 fa3c c1e8 e63c
000003f0: 9e26 163d 9f61 16bd 2efd 103c 1e55 f93c

model/pi_fc1/MatMul_bias f4 [256]
0.01914422 0.023197636 -0.013751115 0.025145305 -0.0052242843 0.009530581 -0.012367224 -0.010363926
-0.0007057948 0.00076898455 -0.0029957513 0.0015386965 -0.003418218 0.0011261718 0.006651346 0.0026757645
-0.0067108762 -0.012359663 -0.0052740076 0.004070611 0.01779693 -0.00014658531 0.0117867775 0.0052384734
0.0029087947 -0.0040092613 0.0025231563 0.004709023 0.0046068095 0.010330127 0.022491388 -0.005187023
0.008258519 0.0017170071 0.0016823938 -0.010828989 0.0026323036 0.0008527967 0.0152818 0.008211483
0.007917972 0.00478523 -0.0008785702 0.014758645 0.013132315 -0.0006941169 0.006950247 0.0020408512
0.016989287 0.0062745283 0.00044974778 -0.008908825 0.0044740005 0.018999724 0.0072824983 0.0104129
-0.00017194456 0.0014844433 0.017470216 -0.004084501 0.011032986 -0.005648055 -0.008348813 -0.003888232
0.00025823893 0.001556627 0.019393377 0.009483729 0.01047068 0.0063251127 -0.0014099774 0.008737291
0.002063769 0.014030183 0.00079506304 -0.008135298 -0.0010447243 0.008944389 0.0077081467 -0.002136155
-0.00084878027 0.015147189 0.00010834227 -0.0043733823 0.0026357546 -0.0076278606 0.0078605665 -0.0026316002
0.0024196361 0.00140645 -0.001086453 0.007642764 -0.0024218922 -0.0047263843 0.0028609682 -0.013287501
0.014678638 0.0039409003 0.002592283 -0.0006047023 -0.00067906315 -0.00990991 0.009646556 0.016906347
0.0013303864 -0.0038462665 -0.003122821 -0.004757876 -0.009448988 -0.00056207296 -0.0077591273 0.0010949726
0.006086724 -0.008484751 0.0001690881 0.0057211183 -0.0019868724 0.0099706445 0.0010693795 0.0007106756
0.00771567 0.018819883 0.0015210235 0.0026727384 -0.0017298319 0.0048827985 0.015407105 -0.0032591883
-0.005985263 0.008936612 -0.0074631553 0.012287426 0.006736229 0.007959422 -0.0017813792 -0.00429027
-0.0023183262 0.005524546 -0.013320403 0.0072846133 -0.004279609 -0.0008672769 -0.0105336355 -0.004739045
-0.0036492897 -0.0056409435 -0.0028808718 -6.4054024e-05 -0.013073579 0.0029205326 0.0026247737 -0.005674132
0.004729388 -0.0066579003 0.015309322 0.011230236 -0.008231796 -0.008287094 0.006368357 0.0132135665
-0.00087742845 0.0027788505 -0.006554853 0.007371179 -0.005149473 0.007994096 -0.0054246504 -0.0054096356
-0.009305709 0.0038480822 0.0027299968 -0.00034796013 -0.0036354428 -0.0004959432 0.012328278 -0.0012066622
0.00030105602 0.002803675 -0.01804849 0.015261376 0.008231175 0.008526202 0.008532516 -0.0031044187
0.012399166 -0.00018036144 0.008385563 -0.0036849582 0.0023864962 0.00095244666 0.000678625 -0.008787239
0.005536087 0.0016588233 0.0027318667 -0.0027108956 0.024540367 0.021839341 0.0006570996 -0.010119007
0.017626507 0.016187986 -0.017130945 0.023058228 -0.0058723604 -0.0066297865 0.0044815484 0.009307895
0.018882664 0.0020451227 0.0045560766 0.007537456 -0.0058127297 -0.0055426634 0.0008161413 0.0036178133
-0.004148414 0.0028400363 -0.011741629 -0.005708773 0.0071968245 0.0038858447 -0.008476913 -0.002399927
0.024720656 -0.0049900557 0.0029299054 0.0003931999 -0.002885893 -0.00018125586 -0.010584902 -0.008235572
0.0040756385 0.005313985 -0.0022838302 -0.004332501 0.017575989 -0.0025306016 0.004890914 0.0023182032
0.007090856 -0.0015181911 0.0021837847 0.0054799654 0.0065665254 0.0073310975 -0.017558798 0.0011432122
0.014474565 0.0013569437 -0.012247316 -0.0017405588 0.007799593 0.0066965455 0.01581478 -0.0016685289
00000000: 57d4 9c3c f808 be3c 5b4c 61bc 87fd cd3c
00000010: 7930 abbb 2726 1c3c e69f 4abc 75cd 29bc
00000020: 1605 39ba ae95 493a 5e54 44bb 16ae c93a
00000030: 2f04 60bb 0e9c 933a 89f3 d93b e15b 2f3b
00000040: e9e6 dbbb 2f80 4abc 95d1 acbb c362 853b
00000050: deca 913c b2b4 19b9 541d 413c 80a7 ab3b
00000060: 7aa1 3e3b 1f60 83bb 8a5b 253b 264e 9a3b
00000070: b8f4 963b b13f 293c dc3f b83c e7f7 a9bb
00000080: bd4e 073c 330d e13a c583 dc3a 126c 31bc
00000090: ba82 2c3b 388e 5f3a 8460 7a3c 7589 063c
000000a0: 62ba 013c 6bcd 9c3b d94f 66ba 3ece 713c
000000b0: ec28 573c 66f5 35ba e6be e33b cdbf 053b
000000c0: 1e2d 8b3c 8f9a cd3b 20cc eb39 52f6 11bc
000000d0: a39a 923b 4fa5 9b3c 06a2 ee3b de9a 2a3c
000000e0: 044c 34b9 a791 c23a b31d 8f3c 47d7 85bb
000000f0: b3c3 343c 5213 b9bb 76c9 08bc b5d1 7ebb
00000100: 3e64 8739 bc07 cc3a dcde 9e3c a461 1b3c
00000110: 378d 2b3c e442 cf3b fece b8ba db26 0f3c
00000120: 4c40 073b dade 653c c76b 503a ea49 05bc
00000130: 21ef 88ba 7d8b 123c 9f94 fc3b bcfe 0bbb
00000140: ae80 5eba ea2b 783c d035 e338 974e 8fbb
00000150: a0bc 2c3b 22f3 f9bb 9bc9 003c ed76 2cbb
00000160: c292 1e3b a258 b83a 5067 8eba 2770 fa3b
00000170: 9cb8 1ebb c9df 9abb 157f 3b3b d2b3 59bc
00000180: ac7e 703c ab22 813b 4be3 293b e284 1eba
00000190: 2803 32ba 2d5d 22bc 970c 1e3c 2e7f 8a3c
000001a0: 5c60 ae3a a511 7cbb 3ea8 4cbb f5e7 9bbb
000001b0: eecf 1abc 1458 13ba 4740 febb 2f85 8f3a
000001c0: 2473 c73b a003 0bbc 3e4d 3139 3878 bb3b
000001d0: 3036 02bb ea5b 233c 6c2a 8c3a a24c 3a3a
000001e0: bbd3 fc3b 282c 9a3c 145d c73a 1c29 2f3b
000001f0: 87bb e2ba e2ff 9f3b 156e 7c3c 1b98 55bb
00000200: 0620 c4bb de6a 123c 7c8d f4bb 3351 493c
00000210: 96bb dc3b 3c68 023c 2b7d e9ba 6595 8cbb
00000220: 0fef 17bb 4007 b53b d23d 5abc c4b3 ee3b
00000230: f63b 8cbb f859 63ba 4595 2cbc fe49 9bbb
00000240: ec28 6fbb aad7 b8bb 02cd 3cbb be54 86b8
00000250: 9132 56bc 6866 3f3b 6504 2c3b 12ee b9bb
00000260: fbf8 9a3b 842a dabb f3d3 7a3c 06ff 373c
00000270: a8de 06bc 97c6 07bc a7ad d03b b77d 583c
00000280: 3a03 66ba 601d 363b 18ca d6bb ee89 f13b
00000290: e9bc a8bb abf9 023c 44c1 b1bb 5043 b1bb
000002a0: f976 18bc 1b30 7c3b bfe9 323b 6b6e b6b9
000002b0: 9c40 6ebb 2f02 02ba 8cfc 493c dd28 9eba
000002c0: 0ed7 9d39 dcbd 373b 6dda 93bc da0a 7a3c
000002d0: 0ddc 063c 7cb1 0b3c f7cb 0b3c 8173 4bbb
000002e0: df25 4b3c 681f 3db9 9a63 093c 577f 71bb
000002f0: c366 1c3b 9dad 793a c1e5 313a 5af8 0fbc
00000300: 1068 b53b e06c d93a 1e09 333b 48a9 31bb
00000310: e108 c93c 6be8 b23c 3541 2c3a 31ca 25bc
00000320: 7765 903c ab9c 843c 3256 8cbc 9ce4 bc3c
00000330: ee6c c0bb ae3e d9bb f4d9 923b 2480 183c
00000340: d1af 9a3c 7707 063b 244b 953b c4fc f63b
00000350: b678 bebb 3b9f b5bb 51f2 553a d618 6d3b
00000360: 6bef 87bb e71f 3a3b f65f 40bc a910 bbbb
00000370: 57d3 eb3b a8a9 7e3b c0e2 0abc 1848 1dbb
00000380: f982 ca3c 9f83 a3bb a803 403b 6626 ce39
00000390: 4021 3dbb 800f 3eb9 4c6c 2dbc 7eee 06bc
000003a0: ef8c 853b f020 ae3b 50ac 15bb a7f7 8dbb
000003b0: 85fb 8f3c 73d8 25bb f643 a03b ffec 173b
000003c0: 695a e83b 0afe c6ba d41d 0f3b 4891 b33b
000003d0: 022c d73b b439 f03b 78d7 8fbc d6d7 953a
000003e0: ba26 6d3c 7adb b13a f7a8 48bc 7623 e4ba
000003f0: ba93 ff3b b26e db3b ff8d 813c 8ab2 daba

model/pi_fc1/w/transpose f4 [256, 512]
0.036487564 -0.096425824 0.021996344 0.1338298 0.0075322436 0.051289797 -0.032359704 -0.09219753
0.021811953 -0.1254544 -0.009197204 0.03153961 -0.0035379713 0.06474081 0.0792375 0.029059857
0.048232783 -0.1002013 -0.045597184 0.001818757 -0.039874226 0.09520591 0.062769674 -0.13322447
0.060944032 -0.041514225 0.08861987 -0.06466542 -0.03151218 0.04890502 -0.04735958 0.012792309
0.050928637 0.0467606 -0.05688919 -0.027514247 -0.022577927 -0.09409359 -0.14576261 0.016525589
-0.051312853 0.042005483 0.018355161 -0.027575614 0.07660191 0.083757825 -0.10114204 0.13943061
0.07428717 0.013201755 0.02214322 -0.17320216 -0.086814 -0.02144902 -0.07137647 0.12177807
0.0244249 0.0117164785 -0.028085904 0.045599304 -0.05997386 -0.040635277 0.06806358 0.020024722
-0.0083987275 -0.02262846 -0.010133837 0.034884606 0.07275985 0.05971834 -0.047276173 -0.019291274
0.014541286 0.003333835 0.0019127588 -0.08919918 0.08114839 0.0027317223 0.021956388 -0.09018681
-0.032821648 -0.007692602 0.052223105 0.08354613 -0.035559908 -0.105035044 -0.025408087 0.068804845
-0.03519557 0.0018529352 0.0054270774 0.07869485 -0.07060599 0.0067929006 -0.015902542 -0.10868941
0.014874855 0.04399323 -0.108253 0.035426512 -0.029317664 -0.0595476 0.033672668 0.06643683
0.040687744 -0.013454979 0.06947808 0.08711833 -0.028224552 0.1358508 0.102272585 0.09503144
0.098592676 0.014349196 -0.12851977 -0.06877223 -0.10731959 -0.006618969 0.17132017 0.01745183
0.042570654 -0.013195092 0.08190018 0.016422436 0.005717176 -0.05838625 0.020500349 0.043030407
-0.022567214 -0.10408587 -0.030957686 -0.067463964 -0.13901962 -0.04046624 -0.050076522 0.07069432
0.08868426 0.07653615 0.16274892 0.0022897092 -0.039297525 0.05991462 0.04503591 0.07183065
0.066321895 0.11262661 -0.079746135 -0.015393116 0.056090873 0.009074941 -0.035336856 0.060990326
0.051505983 0.023528246 0.10685684 0.019101188 -0.02612233 0.014209546 0.033708736 0.04761135
-0.05043174 0.1145736 -0.11753731 0.094013244 0.09788732 -0.060619 0.07087327 0.046585444
-0.17153537 0.08950872 0.032808226 0.051642824 -0.07902768 -0.015613126 -0.05350197 0.048760954
0.015654849 0.020013666 -0.05680864 0.09710806 0.029725378 0.07722684 -0.07580389 0.090946086
-0.0060986136 0.07393898 0.04079243 0.06749005 0.006853498 -0.09442224 -0.09652792 0.037699454
0.00033206132 -0.11093096 -0.1301822 0.06256603 -0.0148383975 -0.03532285 -0.024612103 0.0824486
0.059656583 0.073917635 0.025085757 0.01931809 0.004090975 -0.0022195217 0.0018096786 0.03612411
-0.021024628 -0.05569361 -0.13141817 -0.090307124 0.06632574 0.017123448 -0.06549065 0.10134479
0.028531596 -0.02610608 0.049904104 -0.0062655355 0.0023716334 0.0527692 -0.031589635 -0.028492145
0.06636577 0.07783616 -0.024312198 0.060920563 0.038542897 -0.013623238 -0.08350185 -0.019830322
0.08819353 0.008750242 -0.00036209694 -0.039803833 0.01715617 -0.047622643 0.057126287 0.03213395
0.027978253 0.044512853 -0.01655775 0.0076194988 -0.008582513 0.010569763 -0.047387592 0.096089244
0.06346214 0.009294265 0.039366774 -0.07662047 -0.08972798 0.079575405 0.045413595 0.03495171
00000000: fc73 153d e77a c5bd ad31 b43c ae0a 093e
00000010: 0ad1 f63b 4015 523d 9c8b 04bd 0fd2 bcbd
00000020: fbae b23c 1e77 00be dfaf 16bc ae2f 013d
00000030: 4fdd 67bb d496 843d 4547 a23d f00e ee3c
00000040: bd8f 453d 5736 cdbd 1dc4 3abd 5c63 ee3a
00000050: 2853 23bd 51fb c23d 638d 803d ff6b 08be
00000060: 73a0 793d d20a 2abd 567e b53d 4e6f 84bd
00000070: ea12 01bd a150 483d 1efc 41bd d596 513c
00000080: 8c9a 503d 0b88 3f3d a404 69bd 8f65 e1bc
00000090: 58f5 b8bc 24b4 c0bd cb42 15be ac60 873c
000000a0: 6d2d 52bd f10d 2c3d 905d 963c 41e6 e1bc
000000b0: 76e1 9c3d 3989 ab3d 8f23 cfbd e6c6 0e3e
000000c0: df23 983d 2c4c 583c b365 b53c e85b 31be
000000d0: 8acb b1bd dbb5 afbc d42d 92bd c866 f93d
000000e0: ba16 c83c 79f6 3f3c 6914 e6bc 56c6 3a3d
000000f0: 26a7 75bd 2d71 26bd eb64 8b3d e30a a43c
00000100: d19a 09bc 525f b9bc 6508 26bc 29e3 0e3d
00000110: 1e03 953d 389b 743d a9a4 41bd bc08 9ebc
00000120: 933e 6e3c 787c 5a3b 89b5 fa3a 0fae b6bd
00000130: 2131 a63d b206 333b e2dd b33c ddb3 b8bd
00000140: fe6f 06bd 3912 fcbb e5e7 553d 3c1a ab3d
00000150: 44a7 11bd 9d1c d7bd 9f24 d0bc 8ee9 8c3d
00000160: 3b29 10bd 30de f23a a0d5 b13b c42a a13d
00000170: e099 90bd fb96 de3b 0c46 82bc 8e98 debd
00000180: aab5 733c 3f32 343d c0b3 ddbd 641b 113d
00000190: 992b f0bc 2fe8 73bd 5aec 093d 0810 883d
000001a0: 31a8 263d 4672 5cbc 864a 8e3d 186b b23d
000001b0: 2d37 e7bc 791c 0b3e 4a74 d13d d89f c23d
000001c0: f5ea c93d e418 6b3c b09a 03be 74d8 8cbd
000001d0: 60ca dbbd f0e3 d8bb 8e6e 2f3e 24f7 8e3c
000001e0: 915e 2e3d 3a30 58bc 48bb a73d 5888 863c
000001f0: 2657 bb3b 6c26 6fbd 59f0 a73c a740 303d
00000200: e1de b8bc f92a d5bd f99a fdbc 8c2a 8abd
00000210: 295b 0ebe eebf 25bd 0a1d 4dbd 2fc8 903d
00000220: 18a0 b53d fcbe 9c3d a7a7 263e f20e 163b
00000230: 71f6 20bd 0869 753d 9377 383d f31b 933d
00000240: c6d3 873d c8a8 e63d f151 a3bd 6833 7cbc
00000250: 8bbf 653d 10af 143c 61bd 10bd fed0 793d
00000260: f0f7 523d 4fbe c03c c2d7 da3d 187a 9c3c
00000270: 7ffe d5bc 28cf 683c 2c12 0a3d 1e04 433d
00000280: 8391 4ebd 90a5 ea3d 67b7 f0bd 048a c03d
00000290: 2679 c83d a14b 78bd 0126 913d 61d0 3e3d
000002a0: f8a6 2fbe 5950 b73d eb61 063d 6d87 533d
000002b0: 44d9 a1bd 32ce 7fbc e224 5bbd 91b9 473d
000002c0: 993e 803c b3f3 a33c 2db0 68bd 97e0 c63d
000002d0: a382 f33c 1b29 9e3d 123f 9bbd f141 ba3d
000002e0: e1d6 c7bb 526d 973d f715 273d 3938 8a3d
000002f0: 4f93 e03b 7360 c1bd 6eb0 c5bd be6a 1a3d
00000300: 8418 ae39 c52f e3bd 7c4e 05be 9e22 803d
00000310: c01c 73bc b1ae 10bd 529f c9bc d0da a83d
00000320: 765a 743d 2162 973d a580 cd3c f940 9e3c
00000330: 960d 863b 6575 11bb bd32 ed3a e0f6 133d
00000340: d73b acbc fc1e 64bd 7c92 06be f1f2 b8bd
00000350: cad5 873d 7946 8c3c f61f 86bd db8d cf3d
00000360: 18bb e93c 6bdc d5bc 3f68 4c3d 1f4f cdbb
00000370: 686d 1b3b 8424 583d 2264 01bd 5c68 e9bc
00000380: c7ea 873d 9168 9f3d 602a c7bc d787 793d
00000390: 28df 1d3d 0034 5fbc 0503 abbd 3373 a2bc
000003a0: cf9e b43d 2d5d 0f3c d4d7 bdb9 5809 23bd
000003b0: 198b 8c3c f60f 43bd 41fd 693d e49e 033d
000003c0: a632 e53c 1c53 363d 1ea4 87bc fdac f93b
000003d0: ab9d 0cbc cd2c 2d3c 7e19 42bd 70ca c43d
000003e0: 70f8 813d f946 183c 0e3f 213d 31eb 9cbd
000003f0: 4ec3 b7bd 6ef8 a23d 9b03 3a3d 8629 0f3d
